dataset_create/model.pt (torch, 44940 bytes, 25 tensors)

weight f4 [4, 1, 3, 3]
-0.020824403 0.23197158 0.051323425 -0.64883757 0.31709868 -0.39789653 0.17194279 -0.67771864
0.07181322 0.21984522 -0.81574327 -0.022637969 -0.19789976 0.39753726 -0.16628046 0.119486764
0.16683044 0.07249878 0.056863263 0.19784455 0.11287682 0.05099014 0.24349655 0.31653517
0.14686364 0.34193796 0.32277218 0.070895135 0.31701943 0.40279093 0.4852378 0.35733756
0.039164547 0.3465887 -1.0831572 -0.468232
00000000: f097 aabc f589 6d3e 8338 523d 381a 26bf
00000010: c25a a23e 18b9 cbbe c511 303e f87e 2dbf
00000020: cf12 933d 1b1f 613e 8dd4 50bf 4373 b9bc
00000030: 3ca6 4abe 018a cb3e 6d45 2abe 7ab5 f43d
00000040: 99d5 2a3e 3e7a 943d 74e9 683d c397 4a3e
00000050: f62b e73d 09db 503d 2957 793e e610 a23e
00000060: 6c63 163e 7e12 af3e 6542 a53e 7831 913d
00000070: 5f50 a23e 9d3a ce3e 1771 f83e f3f4 b63e
00000080: 016b 203d 1374 b13e e5a4 8abf 1bbc efbe

bias f4 [4]
0.094943754 -0.0042753285 -0.2503459 0.034845352
00000000: df71 c23d 0e18 8cbb 562d 80be 00ba 0e3d

weight f4 [4, 4, 3, 3]
-0.015092587 0.12488002 0.20589986 0.12671188 -0.0031133557 -0.13433546 -0.12439023 0.12435182
0.1617658 -0.06307904 0.028073207 0.13396278 -0.023786366 0.08988028 0.16184509 -0.20789792
0.12960355 -0.11343062 0.13729924 0.20462778 0.028085073 0.34396642 -0.101941675 0.2775796
0.4176502 0.26951116 0.14674293 -0.20130762 -0.117942184 -0.09040248 0.2265306 -0.17299351
-0.005868021 -0.0719183 -0.04903928 -0.1243642 -0.056355014 -0.08120792 0.040371496 0.086280175
0.017370367 -0.21349998 -0.114277646 0.206859 -0.090761796 0.13766056 0.072265804 0.06663959
0.30325633 0.17925304 0.066501856 -0.061259255 0.027726991 0.26465607 0.2120105 0.053179525
0.05673109 -0.03644528 -0.008375452 0.04375065 -0.23292176 0.12354033 -0.3828431 -0.08966665
-0.14926372 -0.13408433 0.23966205 0.20682715 0.021345524 -0.17831701 0.12209164 0.19475006
-0.14805053 -0.26859045 -0.053681135 0.13486832 -0.088920265 0.06579791 -0.034722928 -0.14866105
-0.09149479 0.11183604 -0.08202707 -0.17726462 0.020483244 -0.23744744 -0.030087799 0.058423508
-0.02556166 0.16760373 0.1488101 0.1501583 0.03685566 0.18641227 0.34492382 0.22003254
0.2090002 0.34008375 0.33284527 0.06215246 -0.13867213 -0.1477508 -0.14018342 0.037347008
-0.058685984 -0.03119435 0.0009883582 -0.087219566 -0.057544798 -0.07165636 0.18530872 0.09316011
-0.12483944 -0.20188156 -0.2594346 -0.25408712 -0.0050105085 0.063295126 -0.1254162 -0.054148775
0.037282683 -0.30608445 0.07111381 0.14587265 -0.28095907 -0.21720985 0.04125194 0.16695012
-0.06937465 -0.1952315 0.1433496 0.22740735 -0.31838033 0.15048431 0.22969042 0.16543546
-0.04620553 -0.12331958 0.34423825 -0.17364612 -0.14108954 0.1779598 -0.119637325 -0.09204356
00000000: e646 77bc 19c1 ff3d 6ad7 523e c2c0 013e
00000010: 7109 4cbb 3c8f 09be 4ec0 febd 2bac fe3d
00000020: efa5 253e 952f 81bd c8f9 e53c 8a2d 093e
00000030: a0db c2bc 2713 b83d b8ba 253e 31e3 54be
00000040: cbb6 043e 504e e8bd 2c98 0c3e f289 513e
00000050: ab12 e63c 5e1c b03e ccc6 d0bd ea1e 8e3e
00000060: 3fd6 d53e 5efd 893e c743 163e 9623 4ebe
00000070: ac8b f1bd ef24 b9bd a3f7 673e 3625 31be
00000080: 8748 c0bb e749 93bd 69dd 48bd a8b2 febd
00000090: 84d4 66bd 5750 a6bd 955c 253d a9b3 b03d
000000a0: 4d4c 8e3c bd9f 5abe 660a eabd d8d2 533e
000000b0: 52e1 b9bd e4f6 0c3e 1800 943d 567a 883d
000000c0: 6a44 9b3e 1c8e 373e 2032 883d fcea 7abd
000000d0: b723 e33c 0081 873e 4819 593e c6d2 593d
000000e0: dc5e 683d a547 15bd 3139 09bc e233 333d
000000f0: 0b83 6ebe b602 fd3d 0304 c4be 26a3 b7bd
00000100: 97d8 18be 674d 09be f869 753e 7fca 533e
00000110: cfdc ae3c bc98 36be 2f0b fa3d 8f6c 473e
00000120: 8f9a 17be b084 89be c0e0 5bbd ec1a 0a3e
00000130: d41b b6bd 0ec1 863d a139 0ebd 9a3a 18be
00000140: 9f61 bbbd 4b0a e53d cffd a7bd db84 35be
00000150: 7acc a73c 6c25 73be b07a f6bc 7d4d 6f3d
00000160: b066 d1bc 50a0 2b3e ad61 183e 19c3 193e
00000170: f6f5 163d dce2 3e3e db99 b03e 3650 613e
00000180: 2604 563e 751f ae3e b26a aa3e 9493 7e3d
00000190: 1100 0ebe fc4b 17be 3e8c 0fbe 2df9 183d
000001a0: b760 70bd 4b8b ffbc cc8b 813a 2ca0 b2bd
000001b0: 18b4 6bbd 92c0 92bd 92c1 3d3e baca be3d
000001c0: d2ab ffbd 0aba 4ebe 9dd4 84be b517 82be
000001d0: 312f a4bb e0a0 813d 1b6d 00be 1bcb 5dbd
000001e0: bab5 183d 1ab7 9cbe 1ea4 913d a45f 153e
000001f0: ded9 8fbe 426c 5ebe cbf7 283d f9f4 2a3e
00000200: 4c14 8ebd c4ea 47be 3dca 123e 79dd 683e
00000210: bf02 a3be 8f18 1a3e f733 6b3e ea67 293e
00000220: 0342 3dbd fa8e fcbd ff3f b03e 4ad0 31be
00000230: c779 10be 183b 363e 6a04 f5bd 5681 bcbd

bias f4 [4]
-0.16275789 0.033433333 -0.06655639 -0.051032875
00000000: 01aa 26be 64f1 083d b74e 88bd d907 51bd

weight f4 [8, 4, 3, 3]
-0.05235887 -0.24042223 -0.13641901 0.01054454 -0.020527374 0.077903256 -0.060285363 0.12525778
0.074941725 0.08558641 0.14865987 0.09546761 -0.18644741 -0.021866316 -0.20778234 -0.25072247
0.041542664 -0.15889636 -0.10810604 -0.018786868 -0.05450613 0.18735036 -0.16243465 0.11737561
0.2981039 0.074709505 0.09512447 0.07246486 0.13266079 0.16889742 0.31177175 -0.12721208
0.34990668 0.4408761 0.4330245 0.21962859 -0.3254679 -0.19264556 -0.06671124 -0.27975205
0.015056322 -0.09805182 -0.43227106 -0.0066000423 -0.1980023 -0.09047121 0.091812775 -0.04615463
-0.16586754 -0.018520888 0.07250929 -0.13756853 0.10622507 0.16506325 0.036789343 0.18788816
0.11563412 0.021199208 0.11956933 -0.016521348 -0.11657768 0.072598554 -0.14456926 -0.103851974
-0.11159139 -0.13774899 0.07337654 -0.012568178 0.06978535 0.019305918 -0.090939865 0.003624327
0.17943457 0.031307925 0.08854833 0.20037733 -0.015713414 -0.027491491 -0.22407494 -0.12040543
-0.1568688 0.097375244 0.14900497 0.06628425 0.056381475 0.06845848 0.13800234 0.015864683
0.28414702 0.23503737 -0.07139538 -0.14806002 -0.02607298 -0.03972682 0.054550085 -0.12550586
-0.3072422 -0.17717233 -0.48164 -0.08428337 -0.022373233 -0.019165846 -0.18034436 -0.094607145
-0.068711594 -0.20047769 -0.20626286 -0.118779786 0.14601673 0.0057472605 0.13328217 0.22451746
-0.005756041 0.21630502 -0.198057 -0.23500252 -0.25776905 0.11044069 0.18934254 0.0035958649
0.13230535 -0.0481797 -0.083372116 -0.010132374 -0.1888727 -0.082782485 0.18184093 -0.28619388
0.22378697 0.3853035 -0.007466477 0.25746822 -0.2975531 -0.12939826 -0.42774776 0.010220394
-0.21534015 0.26796076 0.072607666 -0.13115428 0.30144364 0.06564541 0.12126138 0.05269125
-0.13316867 -0.028013296 -0.08607827 -0.042740207 0.03700333 -0.22818048 -0.10806963 -0.25161943
-0.12447499 -0.06581255 -0.0903254 -0.14275673 -0.06284089 -0.09357943 -0.07766236 0.17180553
-0.21431302 -0.054107625 0.010551166 -0.12986788 -0.09235656 -0.008537801 -0.19308537 0.011872537
-0.18338947 -0.03703787 -0.11414489 0.22234087 0.009654362 0.054566365 0.3314408 0.009895982
-0.15425417 0.26013666 0.026095968 -0.03915277 0.34050593 -0.011135274 0.29630598 0.17950226
-0.10931258 0.091410585 0.0913066 0.023854742 0.16855392 0.07229147 0.09746136 -0.025157157
0.047821313 -0.11747853 0.2168113 0.059749212 0.15885432 0.14514233 0.2542866 -0.06686855
0.35399377 0.102081336 -0.013564491 -0.16079518 -0.08271733 -0.03925011 -0.045444313 -0.08862622
0.03959795 -0.09269791 -0.0054325433 -0.13869828 -0.2588191 -0.067919366 -0.09237925 -0.3693875
-0.22550347 -0.115690984 -0.00068416446 -0.2887251 -0.2287383 -0.116395205 0.37617877 0.27277654
0.18805125 0.0595172 0.25362313 -0.03335774 -0.26033115 -0.17904711 -0.44845882 -0.11448473
-0.13989885 -0.2073088 -0.1571514 -0.2180003 -0.19529626 -0.20614226 -0.16313772 -0.11860887
0.34582987 0.15855238 0.32238 -0.09866104 -0.2515239 -0.1588722 -0.56802046 -0.4627731
-0.24097656 0.15288638 0.004366994 0.1362953 -0.05117028 -0.10810772 -0.31896773 0.03475323
00000000: 4176 56bd 3f31 76be 6db1 0bbe 02c3 2c3c
00000010: 0629 a8bc be8b 9f3d c9ed 76bd 9343 003e
00000020: 0c7b 993d ed47 af3d 4b3a 183e 8684 c33d
00000030: 12ec 3ebe fd20 b3bc e5c4 54be b25e 80be
00000040: a428 2a3d bab5 22be b366 ddbd ebe6 99bc
00000050: d241 5fbd c6d8 3f3e 4555 26be a062 f03d
00000060: 13a1 983e 4c01 993d 9ed0 c23d 7568 943d
00000070: 3bd8 073e 72f3 2c3e 8ca0 9f3e e243 02be
00000080: f826 b33e 83ba e13e 63b5 dd3e 51e6 603e
00000090: bba3 a6be e144 45be e79f 88bd a93b 8fbe
000000a0: cbae 763c 65cf c8bd a252 ddbe 2b45 d8bb
000000b0: 1dc1 4abe f848 b9bd 5608 bc3d a30c 3dbd
000000c0: 2ed9 29be 1eb9 97bc c07f 943d c4de 0cbe
000000d0: 888c d93d 5706 293e 6cb0 163d c165 403e
000000e0: 95d1 ec3d f6a9 ad3c c4e0 f43d c757 87bc
000000f0: 47c0 eebd 8dae 943d f709 14be 58b0 d4bd
00000100: 078a e4bd 120e 0dbe 7046 963d c2ea 4dbc
00000110: 9feb 8e3d 7227 9e3c ae3e babd 1e86 6d3b
00000120: b2bd 373e bd3c 003d d458 b53d b72f 4d3e
00000130: 6bb9 80bc d635 e1bc e773 65be 1f97 f6bd
00000140: 37a2 20be ac6c c73d c294 183e 09c0 873d
00000150: 43f0 663d f633 8c3d 7c50 0d3e a7f6 813c
00000160: b87b 913e a3ad 703e be37 92bd 0c9d 17be
00000170: 0197 d5bc 97b8 22bd e96f 5f3d 9c84 00be
00000180: da4e 9dbe aa6c 35be 8599 f6be c29c acbd
00000190: 1248 b7bc b101 9dbc 31ac 38be 64c1 c1bd
000001a0: aab8 8cbd 064a 4dbe 9236 53be d142 f3bd
000001b0: 6985 153e 8453 bc3b 1f7b 083e e8e7 653e
000001c0: 2c9d bcbb 107f 5d3e 74cf 4abe 80a4 70be
000001d0: 4efa 83be ba2e e23d 03e3 413e 9aa8 6b3b
000001e0: 0e7b 073e 1458 45bd 00bf aabd 4202 26bc
000001f0: d867 41be dd89 a9bd 8234 3a3e 0188 92be
00000200: 6928 653e 8046 c53e 59a9 f4bb e0d2 833e
00000210: e158 98be fa80 04be c101 dbbe 7073 273c
00000220: 2182 5cbe 2732 893e 54b3 943d 4f4d 06be
00000230: d256 9a3e 1a71 863d e357 f83d c8d2 573d
00000240: 5e5d 08be 247c e5bc ce49 b0bd 5b10 2fbd
00000250: ce90 173d 25a8 69be 9c53 ddbd 43d4 80be
00000260: beec febd bbc8 86bd 86fc b8bd d22e 12be
00000270: b9b2 80bd 92a6 bfbd 720d 9fbd caed 2f3e
00000280: df74 5bbe f59f 5dbd ccde 2c3c 16fc 04be
00000290: 7025 bdbd 22e2 0bbc 2cb8 45be 0885 423c
000002a0: 73ca 3bbe 06b5 17bd ccc4 e9bd 53ad 633e
000002b0: 542d 1e3c fb80 5f3d 9cb2 a93e c222 223c
000002c0: cef4 1dbe a230 853e 36c7 d53c a85e 20bd
000002d0: cb56 ae3e b970 36bc 6bb5 973e 71cf 373e
000002e0: 46df dfbd 7935 bb3d f4fe ba3d 056b c33c
000002f0: 6699 2c3e 8d0d 943d d299 c73d 6216 cebc
00000300: 48e0 433d 9598 f0bd c803 5e3e 97bb 743d
00000310: b5aa 223e 31a0 143e da31 823e 61f2 88bd
00000320: ac3e b53e 0510 d13d 993d 5ebc 7ea7 24be
00000330: b467 a9bd b9c4 20bd d123 3abd aa81 b5bd
00000340: 7631 223d 67d8 bdbd 7a03 b2bb ec06 0ebe
00000350: f083 84be 4f19 8bbd 5531 bdbd 5c20 bdbe
00000360: 62ea 66be 65ef ecbd 8059 33ba c7d3 93be
00000370: 5f3a 6abe 9c60 eebd 819a c03e 5ea9 8b3e
00000380: 8290 403e 4fc8 733d e4da 813e 20a2 08bd
00000390: 204a 85be 2058 37be 659c e5be f876 eabd
000003a0: a541 0fbe c248 54be 4cec 20be 783b 5fbe
000003b0: befb 47be f516 53be 930d 27be 35e9 f2bd
000003c0: 9d10 b13e 8e5b 223e fe0e a53e cd0e cabd
000003d0: bec7 80be 65af 22be ca69 11bf 99f0 ecbe
000003e0: 8fc2 76be 3f8e 1c3e 0019 8f3b ff90 0b3e
000003f0: ed97 51bd 9567 ddbd bd4f a3be 6759 0e3d

bias f4 [8]
0.09532918 0.24163955 0.0140038 0.038449407 -0.16529422 -0.05036096 -0.1335825 0.12909827
00000000: f23b c33d 5c70 773e 3270 653c 207d 1d3d
00000010: e342 29be 4b47 4ebd dac9 08be 5632 043e

weight f4 [8, 8, 3, 3]
0.07526827 -0.086741924 -0.078143805 0.29585844 0.17901625 0.15058348 0.19164601 0.39843842
0.20863761 0.07690705 0.01836942 -0.014412744 -0.20747322 -0.057867087 -0.054649476 -0.34860364
0.0011969664 -0.07109532 -0.058076728 -0.0035789488 -0.009788394 -0.16270031 0.023014192 -0.12978543
-0.31941423 0.03894258 -0.16091418 -0.0067994804 -0.111218646 -0.108604595 -0.12314603 0.0627945
-0.1553349 -0.015713295 0.2655115 0.17394175 0.05783428 -0.10380737 -0.100866206 0.22701354
-0.011804843 0.065342575 0.033234928 0.14092794 0.044961516 0.06792968 -0.07355352 -0.07310202
-0.004855531 -0.11370293 -0.21500084 0.031565774 -0.058075726 -0.1733058 0.10715122 0.06628846
-0.0040454688 -0.014546947 0.036958274 -0.08384372 -0.038208872 -0.27513942 -0.1362961 -0.05547864
0.058418106 0.116369836 -0.07896203 -0.0052900068 -0.025708688 0.008341521 -0.11872272 -0.2847566
0.0858574 0.29511097 0.12276697 -0.013317095 -0.05099058 -0.03552201 -0.007289971 -0.11009407
0.13604479 -0.0987606 -0.07104119 0.061475284 -0.08500976 0.0039622425 0.01527512 0.15004668
0.23129688 0.26442602 0.09992381 0.058524836 0.22373772 -0.14582844 -0.0678351 -0.036140583
0.0414725 -0.02018159 -0.07272214 0.016659923 0.08609447 -0.1351932 0.16328792 0.20732656
0.08853411 -0.19715375 -0.17615768 -0.10763824 -0.11616845 -0.029985713 0.021246081 -0.07610265
0.15824617 0.005491459 -0.009140084 0.13376144 0.0277822 -0.040481057 -0.100235164 -0.05904913
0.1921132 0.120281294 0.04875111 -0.18775319 -0.233372 -0.18549812 -0.07665938 -0.033858147
-0.06843157 0.2164327 0.021041801 0.13467196 0.22239979 0.2579724 0.3018573 0.010419228
-0.0076587456 0.105858386 0.09184953 0.062841594 -0.0017794484 0.1638509 0.08858366 0.11953846
-0.00054560706 -0.07965048 0.008397025 -0.08479895 -0.17052089 0.051653884 0.07066625 0.034598954
0.21411659 -0.03634044 -0.103381865 -0.015423833 -0.08915216 -0.09187258 -0.03209417 0.11038498
0.055203892 -0.30696538 0.08864121 0.18324912 0.120577045 0.016344864 0.02663512 0.114464164
0.26128873 0.22229646 0.18353269 -0.03681983 0.0052369433 -0.032745227 0.052721187 0.012262071
0.026771674 0.14940144 0.2549091 0.13902415 -0.17284274 -0.022404792 0.06692917 0.079276964
0.050510507 0.061480224 -0.124221474 -0.07610606 0.1020904 -0.26943216 -0.2829929 -0.38120577
-0.1218014 0.04899718 0.09286364 -0.098607734 -0.16671124 -0.072442405 0.085855946 -0.021628965
0.12504178 -0.1148197 -0.1546245 -0.3131061 -0.5212952 -0.3430744 -0.16140555 -0.123385325
0.009435831 0.07433782 -0.13898964 -0.24990875 -0.10614465 -0.16661078 -0.13744932 -0.30372113
0.061851595 0.12197944 0.069280505 0.04888325 -0.14580025 -0.050631408 -0.058606993 -0.04092811
0.09725673 -0.29692367 -0.24445559 -0.19412951 0.103959806 0.060542785 0.06583754 0.035103165
0.029013388 0.008697869 0.06395702 0.061959125 -0.07062058 0.06461846 -0.07887337 0.1256997
0.18206865 0.12160934 -0.11097367 0.1128565 0.3013248 0.14993371 -0.02897732 0.016218625
0.15536335 -0.121318474 -0.0973376 -0.0077866483 0.124351844 0.09845276 0.033051495 0.027995385
00000000: 4026 9a3d c0a5 b1bd dc09 a0bd c27a 973e
00000010: 0950 373e 8e32 1a3e da3e 443e 1f00 cc3e
00000020: 19a5 553e 7281 9d3d 777b 963c 6e23 6cbc
00000030: dc73 54be 0a06 6dbd 21d8 5fbd 2d7c b2be
00000040: 87e3 9c3a 6c9a 91bd dde1 6dbd cc8c 6abb
00000050: 805f 20bc e99a 26be 4288 bc3c 79e6 04be
00000060: 438a a3be 4182 1f3d b0c6 24be 2dce debb
00000070: 9ac6 e3bd 166c debd fc33 fcbd 679a 803d
00000080: 1d10 1fbe 2bb9 80bc 20f1 873e c91d 323e
00000090: a3e3 6c3d f598 d4bd f192 cebd 3d76 683e
000000a0: 1a69 41bc 54d2 853d 5921 083d 6a4f 103e
000000b0: 9129 383d b71e 8b3d 3aa3 96bd 83b6 95bd
000000c0: 251b 9fbb 15dd e8bd 2e29 5cbe 1d4b 013d
000000d0: d0e0 6dbd 1377 31be 1972 db3d 3ec2 873d
000000e0: da8f 84bb 5156 6ebc 8f61 173d 42b6 abbd
000000f0: e880 1cbd 13df 8cbe 3491 0bbe 923d 63bd
00000100: d347 6f3d 4f53 ee3d d8b6 a1bd cb57 adbb
00000110: 079b d2bc e0aa 083c e624 f3bd 9ecb 91be
00000120: 01d6 af3d c918 973e 406d fb3d f22f 5abc
00000130: 80db 50bd 877f 11bd b6e0 eebb 0079 e1bd
00000140: 534f 0b3e ff42 cabd 0b7e 91bd 82cd 7b3d
00000150: 9919 aebd b3d5 813b 7f44 7a3c d6a5 193e
00000160: 17d9 6c3e d962 873e dba4 cc3d bdb7 6f3d
00000170: 801b 653e 0d54 15be 21ed 8abd 2608 14bd
00000180: 11df 293d dd53 a5bc 58ef 94bd 647a 883c
00000190: 4c52 b03d 1670 0abe f334 273e 6a4d 543e
000001a0: 5f51 b53d ace2 49be ae62 34be 7071 dcbd
000001b0: b9e9 edbd 99a4 f5bc 430c ae3c b5db 9bbd
000001c0: 490b 223e b2f1 b33b 4ac0 15bc c2f8 083e
000001d0: 7f97 e33c 77cf 25bd 1848 cdbd 80dd 71bd
000001e0: 53b9 443e 0a56 f63d 3eaf 473d 5f42 40be
000001f0: 12f9 6ebe 38f3 3dbe 98ff 9cbd d7ae 0abd
00000200: da25 8cbd 89a0 5d3e db5f ac3c 72e7 093e
00000210: c5bc 633e f514 843e 0a8d 9a3e 69b5 2a3c
00000220: 37f6 fabb 48cc d83d 9b1b bc3d 18b3 803d
00000230: 613c e9ba 88c8 273e 5a6b b53d 95d0 f43d
00000240: 1207 0fba ca1f a3bd ad93 093c 12ab adbd
00000250: 079d 2ebe 0693 533d 78b9 903d a2b7 0d3d
00000260: 6141 5b3e b7d9 14bd dfb9 d3bd 3fb4 7cbc
00000270: 6895 b6bd b127 bcbd 2d75 03bd 8511 e23d
00000280: 7a1d 623d 912a 9dbe 8689 b53d a8a5 3b3e
00000290: 19f1 f63d aae5 853c e531 da3c 306c ea3d
000002a0: a3c7 853e afa1 633e feef 3b3e 64d0 16bd
000002b0: aa9a ab3b dc1f 06bd 2cf2 573d dae6 483c
000002c0: 4550 db3c b1fc 183e 7283 823e 595c 0e3e
000002d0: b0fd 30be 418a b7bc 2912 893d f65b a23d
000002e0: 1be4 4e3d b0d2 7b3d d467 febd 7edd 9bbd
000002f0: c614 d13d 03f3 89be 72e4 90be 672d c3be
00000300: 0373 f9bd 44b1 483d 4b2f be3d daf2 c9bd
00000310: 5ab6 2abe af5c 94bd 3ed5 af3d 3a2f b1bc
00000320: f40a 003e 9726 ebbd e355 1ebe 714f a0be
00000330: 9a73 05bf 73a7 afbe 7f47 25be 72b1 fcbd
00000340: be98 1a3c 6d3e 983d 4d53 0ebe 14e8 7fbe
00000350: 5e62 d9bd 049c 2abe 84bf 0cbe 5681 9bbe
00000360: 1958 7d3d 5bd0 f93d f0e2 8d3d ce39 483d
00000370: a94c 15be e162 4fbd e30d 70bd 3ca4 27bd
00000380: 892e c73d 6106 98be 9152 7abe e3c9 46be
00000390: e1e8 d43d b6fb 773d d5d5 863d 56c8 0f3d
000003a0: 7cad ed3c 8281 0e3c e6fb 823d dac8 7d3d
000003b0: 86a1 90bd af56 843d 5d88 a1bd 6cb7 003e
000003c0: 3470 3a3e 510e f93d 2a46 e3bd 4f21 e73d
000003d0: 3f47 9a3e 3988 193e d861 edbc ecdc 843c
000003e0: 9217 1f3e d275 f8bd f058 c7bd 2427 ffbb
000003f0: 2eac fe3d 9aa1 c93d 0161 073d 9456 e53c

bias f4 [8]
-0.013420474 -0.21863243 0.12825042 -0.13994652 -0.0280963 0.06367312 -0.11701276 0.009240626
00000000: 8ce1 5bbc 2ee1 5fbe 1454 033e 244e 0fbe
00000010: 362a e6bc 0e67 823d 63a4 efbd ff65 173c

weight f4 [16, 8, 3, 3]
-0.24598135 -0.15879272 -0.1733974 0.037166983 -0.09102391 0.04063024 0.28975058 0.18723819
0.34504408 0.10436135 -0.0882505 0.17784867 0.045296542 0.21269907 0.058443584 -0.27539048
-0.23632592 -0.21562998 -0.059101135 -0.026009232 -0.21362433 0.13817747 0.01297958 -0.047490355
-0.054027483 -0.07163173 0.020082146 -0.061696276 -0.0035942676 -0.22196735 -0.17658338 -0.08871933
-0.10993779 -0.043793395 0.037630096 0.03964581 0.04386981 -0.0031111396 0.17396767 0.027366402
0.2030461 0.022060545 -0.1511969 0.008435862 -0.21473427 -0.037652176 -0.07678865 -0.027206358
-0.12442685 -0.15656655 -0.10680091 0.060307767 0.14828312 0.27902743 -0.032313943 0.045816135
0.1260901 0.021218967 -0.046645377 0.036859725 0.19740324 0.13608135 0.030008553 -0.13238281
-0.06312357 -0.2243045 0.07377082 0.078073405 -0.013011068 -0.024358444 0.06394792 0.20258936
0.04014942 0.0019448198 -0.17849475 0.06303515 -0.13478711 0.08283816 0.18237261 0.09300442
0.047239337 -0.05523259 0.12399823 0.1094633 0.17294697 0.20657319 0.02008405 -0.25135073
-0.21879539 -0.15779574 0.38837743 0.26977372 0.1894413 0.020944184 0.012161368 -0.05216566
0.20120004 0.16263898 0.27777365 -0.1465587 -0.13312644 -0.17725033 -0.106233284 -0.14967687
-0.16521458 0.0968588 0.02399653 0.04598047 -0.048139837 -0.069600336 -0.0518417 -0.09344569
-0.07104925 0.06673715 -0.1594759 -0.29525334 -0.30382237 -0.00021347657 -0.020629086 0.098617904
-0.13287975 -0.11047206 -0.07269063 0.34929317 0.1940894 0.17101704 -0.006015489 -0.02844063
0.19312686 -0.03489243 -0.06494534 0.06606131 0.40951753 0.2868483 0.32375458 -0.08559761
-0.025391752 -0.019052302 -0.11753313 -0.07666267 -0.077866815 0.09311876 0.018014029 0.09276295
0.05255169 0.13347669 0.012479109 0.044067312 -0.12016445 0.06347529 0.6873577 -0.20225154
-0.44213766 -0.13160746 -0.047645263 0.13967273 -0.096808605 -0.053774793 0.10628995 -0.03909935
0.12995042 0.10237255 -0.20066312 -0.17495415 0.037425794 0.05473706 0.05330322 0.1885535
-0.13188986 0.104906075 -0.004234214 0.022313304 0.0033276854 -0.22926246 0.10054905 0.13198058
-0.08726261 -0.06744003 0.10895431 -0.07131655 0.04862227 -0.074059755 0.09609161 -0.15774006
-0.016076079 -0.016455922 -0.012838453 -0.089053005 -0.06090185 -0.059351046 0.026516167 -0.20954722
0.057347167 -0.04211361 -0.14837456 0.1601474 -0.24495211 -0.50256705 0.006291454 -0.03589349
0.056709558 0.09604431 -0.009967241 0.046277367 -0.043568674 -0.17621362 0.21586093 0.12559207
-0.021728352 -0.10667566 0.06740674 -0.08225153 0.0025627115 0.19875301 -0.06461459 -0.47753945
0.17849514 0.20637424 0.051348742 -0.095614046 -0.025842242 -0.03644303 -0.12219275 -0.12151618
-0.24640805 -0.30320403 -0.21005212 -0.21200405 -0.3187321 -0.17991118 -0.340929 -0.07007707
0.023627743 -0.14928639 0.034561414 0.11925349 0.057488106 -0.009650051 0.06740662 0.14586179
0.20766492 0.11256108 0.35929057 0.12575196 0.036217712 0.12797895 0.015022904 -0.10340295
-0.06460624 0.102644354 0.050493237 0.17180952 -0.26969278 -0.0067806705 -0.2305495 0.035890155
00000000: 89e2 7bbe 8f9a 22be 178f 31be 683c 183d
00000010: be6a babd e56b 263d 305a 943e 5ebb 3f3e
00000020: 9ea9 b03e 67bb d53d aebc b4bd f61d 363e
00000030: de88 393d c9cd 593e 8a62 6f3d fbff 8cbe
00000040: 6cff 71be 1bce 5cbe 0814 72bd 5011 d5bc
00000050: 56c0 5abe 657e 0d3e 4ea8 543c 3f85 42bd
00000060: ec4b 5dbd a8b3 92bd 5083 a43c 3cb5 7cbd
00000070: ce8d 6bbb 694b 63be 46d2 34be 7bb2 b5bd
00000080: 1027 e1bd b460 33bd 0422 1a3d a563 223d
00000090: d4b0 333d 43e4 4bbb 9524 323e 812f e03c
000000a0: 51eb 4f3e 51b8 b43c 5cd3 1abe 9236 0a3c
000000b0: 4de3 5bbe 2b39 1abd 5e43 9dbd dedf debc
000000c0: 81d3 febd fb52 20be 6fba dabd 4705 773d
000000d0: 88d7 173e afdc 8e3e a05b 04bd b3a9 3b3d
000000e0: c31d 013e 66d3 ad3c 390f 3fbd 39fa 163d
000000f0: 1324 4a3e e958 0b3e 7fd4 f53c 5c8f 07be
00000100: ee46 81bd 14b0 65be 2815 973d f3e4 9f3d
00000110: 602c 55bc 5c8b c7bc 21f7 823d 9673 4f3e
00000120: b873 243d 53e9 fe3a 54c7 36be 9318 813d
00000130: a205 0abe 0ea7 a93d e3bf 3a3e 1a79 be3d
00000140: 097e 413d 913b 62bd c9f2 fd3d 4b2e e03d
00000150: 0319 313e ec87 533e 4e87 a43c 0bb1 80be
00000160: e60b 60be 3595 21be 68d9 c63e c81f 8a3e
00000170: e6fc 413e 2393 ab3c 7940 473c a9ab 55bd
00000180: 6207 4e3e d58a 263e 5938 8e3e 7c13 16be
00000190: 4c52 08be 1c81 35be d690 d9bd e544 19be
000001a0: 032e 29be e85d c63d 5f94 c43c 0456 3c3d
000001b0: 472e 45bd 9f8a 8ebd f657 54bd 7460 bfbd
000001c0: 4582 91bd 7dad 883d a64d 23be 722b 97be
000001d0: 9b8e 9bbe aed8 5fb9 54fe a8bc 2ff8 c93d
000001e0: a111 08be 2d3f e2bd d3de 94bd 8ed6 b23e
000001f0: 5fbf 463e 171f 2f3e 941d c5bb 53fc e8bc
00000200: 0cc3 453e 5deb 0ebd 1002 85bd 274b 873d
00000210: 48ac d13e c8dd 923e 29c3 a53e cd4d afbd
00000220: 5d02 d0bc 9313 9cbc 36b5 f0bd 5101 9dbd
00000230: a378 9fbd 0cb5 be3d 2892 933c 80fa bd3d
00000240: 7140 573d 1dae 083e 2d75 4c3c ed7f 343d
00000250: c718 f6bd 55ff 813d adf6 2f3f 071b 4fbe
00000260: de5f e2be 1bc4 06be ae27 43bd 5e06 0f3e
00000270: 9743 c6bd f542 5cbd 8cae d93d a426 20bd
00000280: b911 053e b3a8 d13d a27a 4dbe 2e27 33be
00000290: ca4b 193d f833 603d 7a54 5a3d 2b14 413e
000002a0: 230e 07be ffd8 d63d 29bf 8abb 64ca b63c
000002b0: 4c15 5a3b c7c3 6abe a9ec cd3d eb25 073e
000002c0: bdb6 b2bd 001e 8abd 7023 df3d 690e 92bd
000002d0: 2528 473d a4ac 97bd aecb c43d 9c86 21be
000002e0: fbb1 83bc 92ce 86bc 6058 52bc 6c61 b6bd
000002f0: 3874 79bd 151a 73bd 6f38 d93c 8c93 56be
00000300: dde4 6a3d 527f 2cbd 80ef 17be aefd 233e
00000310: bad4 7abe 3ca8 00bf 8b28 ce3b 0d05 13bd
00000320: 4848 683d e1b2 c43d a44d 23bc 568d 3d3d
00000330: 1175 32bd 5871 34be a60a 5d3e 359b 003e
00000340: a8ff b1bc c578 dabd 8b0c 8a3d 7d73 a8bd
00000350: 2af3 273b e985 4b3e a754 84bd 0d80 f4be
00000360: 6ec7 363e c553 533e 0f53 523d 4cd1 c3bd
00000370: 1cb3 d3bc 4945 15bd 3140 fabd 7add f8bd
00000380: 6452 7cbe 8f3d 9bbe e717 57be 9717 59be
00000390: db30 a3be a33a 38be 3f8e aebe 9184 8fbd
000003a0: f88e c13c 88de 18be 4590 0d3d 2c3b f43d
000003b0: a678 6b3d 3f1b 1ebc 7b0c 8a3d cb5c 153e
000003c0: 1da6 543e 6c86 e63d eff4 b73e 1fc5 003e
000003d0: 0659 143d ea0c 033e a022 763c edc4 d3bd
000003e0: 4750 84bd 3437 d23d ffd1 4e3d d6ee 2f3e
000003f0: 2c15 8abe 6330 debb 2b15 6cbe 8e01 133d

bias f4 [16]
-0.042606667 -0.120834045 -0.10215232 -0.10050857 0.1114148 -0.38311768 0.052827943 0.095831096
-0.14583653 0.08917348 -0.18085799 -0.30762392 0.06113678 0.12104542 -0.0017981422 0.02842025
00000000: 5484 2ebd d777 f7bd 3c35 d1bd 70d7 cdbd
00000010: 712d e43d 0028 c4be 1d62 583d 1843 c43d
00000020: 2c56 15be 96a0 b63d d632 39be e280 9dbe
00000030: 8f6a 7a3d a9e6 f73d a4af ebba 96d1 e83c

weight f4 [16, 16, 3, 3]
0.08176982 0.114148535 0.1117736 0.003353764 -0.04770154 0.05088967 0.23025253 0.120480016
0.3144144 0.020806028 -0.09972472 -0.022660846 0.059290186 -0.04943632 0.121710606 0.27178198
0.0027617032 0.26465288 -0.003607476 -0.104558066 -0.19171646 0.2376882 0.08941379 0.116066866
0.19791631 -0.023625962 -0.047577944 0.030979391 -0.074323 -0.061422713 0.020658925 -0.09570687
0.0012795232 -0.098734766 -0.20942993 -0.14879766 -0.08590625 -0.04466857 -0.19058983 0.037629038
-0.022278521 -0.0770191 -0.052395955 0.059202954 0.008290314 0.5186595 0.20679003 0.3128536
0.25327858 -0.05978616 0.14150926 0.48160917 0.42432246 0.6535726 -0.08993709 -0.06105394
-0.08179714 0.22689436 0.024117362 -0.05624687 0.01285819 -0.0017415356 0.030616833 -0.042788636
-0.077698514 0.047133736 -0.16586688 -0.13923647 -0.06726072 -0.32364583 -0.25218776 -0.28759924
0.026314028 -0.058908146 0.084406525 0.07023825 0.10837402 0.10415075 -0.03182342 -0.034718774
-0.17940076 -0.16054446 -0.06976764 0.033268962 0.022805758 -0.007375872 -0.013790049 -0.20771152
-0.054972377 0.13590045 0.14204319 0.11799924 0.028744385 0.3469137 0.09152113 0.12428625
0.35033697 0.17148407 0.35331133 -0.15066212 -0.049436226 -0.10663548 0.07991645 0.025709135
-0.061726164 -0.1906697 -0.06274926 -0.36986515 -0.045004748 0.045747597 -0.013951039 0.057846032
0.119664356 -0.016649395 -0.07745328 -0.06017425 -0.15887192 0.08515469 0.09486157 0.21256548
0.23379542 0.117656015 0.29936644 0.35083154 0.08389266 0.36039445 0.34402543 0.08466644
0.14022584 0.0054349066 -0.017895615 0.12241849 0.07431974 0.04505772 -0.057672363 -0.081265785
0.019873928 -0.08482137 0.208713 0.13264887 0.09099833 0.07706835 0.026943862 0.08436534
-0.11965818 0.019734623 -0.26341975 -0.11808683 -0.05538708 -0.055080272 -0.1309637 -0.15216598
-0.39009193 -0.039376613 0.063576214 -0.119164504 -0.14343733 -0.05726542 -0.17159119 0.03949285
0.014044317 -0.27967298 0.07685969 0.11243778 0.02531108 -0.07091201 0.024299076 0.016729122
-0.11602634 -0.06316396 0.23673315 0.20180012 0.022721112 0.071162105 0.07987955 0.010382343
0.12677449 0.10434944 0.09751845 0.187778 -0.0056248303 -0.020699443 0.007386515 0.020718329
0.0364909 0.06523326 0.13935025 0.07201719 0.2183597 -0.13243477 -0.10516773 -0.27575317
-0.15764089 -0.07670333 -0.2568064 -0.36988202 -0.21709038 -0.46464342 -0.0728791 -0.037885487
-0.0143570565 0.059284702 -0.026396804 0.03730608 0.2107662 0.10629945 0.3733038 0.15780725
0.062153988 0.08596004 0.12490575 -0.011989879 0.11087244 0.2093768 0.085303225 0.23526728
-0.27470562 -0.07759075 -0.20055337 0.078096114 0.1441492 0.14073017 -0.013176373 -0.019772878
0.050140146 -0.027591487 -0.0681329 -0.20497152 0.10626682 0.001219641 -0.016107818 0.07067212
-0.118600786 -0.39758635 -0.15401965 -0.10273252 -0.105507135 -0.08931944 -0.1435129 -0.11400827
-0.21028948 -0.32047155 -0.39501747 -0.07139707 -0.0724745 -0.03095527 -0.0071294666 -0.07780647
-0.051416114 0.25185964 0.14467879 0.3496054 0.0037316566 -0.07622213 -0.009225766 0.09218347
00000000: ef76 a73d b5c6 e93d 8fe9 e43d d3ca 5b3b
00000010: b162 43bd b071 503d 52c7 6b3e 3abe f63d
00000020: edfa a03e 6771 aa3c 793c ccbd 3da3 b9bc
00000030: 44da 723d bd7d 4abd 6943 f93d 0227 8b3e
00000040: b1fd 343b 9580 873e 676b 6cbb 8a22 d6bd
00000050: 5251 44be 8964 733e 941e b73d 77b4 ed3d
00000060: 93aa 4a3e 3c8b c1bc 17e1 42bd 7ec8 fd3c
00000070: a836 98bd 6296 7bbd e83c a93c f701 c4bd
00000080: adb5 a73a 7435 cabd cd74 56be 6a5e 18be
00000090: 9eef afbd 64f6 36bd fb29 43be e820 1a3d
000000a0: 7281 b6bc 31bc 9dbd 249d 56bd cc7e 723d
000000b0: 19d4 073c dec6 043f c4c0 533e 592e a03e
000000c0: bbad 813e 55e2 74bd cee7 103e 7a95 f63e
000000d0: cb40 d93e 8950 273f f030 b8bd b213 7abd
000000e0: 4285 a7bd ff56 683e c691 c53c 1e63 66bd
000000f0: 28ab 523c 3d44 e4ba 27d0 fa3c 2343 2fbd
00000100: 6620 9fbd 4e0f 413d 02d9 29be 0194 0ebe
00000110: fdbf 89bd e8b4 a5be c11e 81be 3540 93be
00000120: 8490 d73c ab49 71bd 54dd ac3d 12d9 8f3d
00000130: 33f3 dd3d fd4c d53d 4659 02bd 4635 0ebd
00000140: d5b4 37be c465 24be 56e2 8ebd 0945 083d
00000150: 24d3 ba3c 4db1 f1bb a8ef 61bc 54b2 54be
00000160: b72a 61bd 7d29 0b3e c573 113e 96a9 f13d
00000170: 5879 eb3c ac9e b13e 6e6f bb3d ca89 fe3d
00000180: 5e5f b33e 8599 2f3e 39e5 b43e 2c47 1abe
00000190: a47d 4abd b463 dabd 3cab a33d f79b d23c
000001a0: 93d4 7cbd eb3e 43be af82 80bd f75e bdbe
000001b0: e656 38bd d561 3b3d e692 64bc f6ef 6c3d
000001c0: 9612 f53d 5064 88bc d39f 9ebd 4679 76bd
000001d0: 52af 22be 9565 ae3d c846 c23d c4aa 593e
000001e0: 1168 6f3e a3f5 f03d 8f46 993e 31a0 b33e
000001f0: eacf ab3d 9f85 b83e 1a24 b03e 9965 ad3d
00000200: 5d97 0f3e 4d17 b23b d399 92bc 8cb6 fa3d
00000210: f334 983d 728e 383d db39 6cbd ad6e a6bd
00000220: a6ce a23c d4b6 adbd dcb8 553e 1bd5 073e
00000230: 555d ba3d 03d6 9d3d 60b9 dc3c bcc7 ac3d
00000240: 590f f5bd 81aa a13c f4de 86be 82d7 f1bd
00000250: 90dd 62bd da9b 61bd 591b 06be 66d1 1bbe
00000260: 21ba c7be 5f49 21bd 3f34 823d 850c f4bd
00000270: 3ce1 12be 258f 6abd 9ab5 2fbe 41c3 213d
00000280: 231a 663c 4c31 8fbe 9d68 9d3d c745 e63d
00000290: 2f59 cf3c 513a 91bd db0e c73c 830b 893c
000002a0: 389f edbd 1b5c 81bd 2d6a 723e b1a4 4e3e
000002b0: a021 ba3c 70bd 913d e497 a33d b41a 2a3c
000002c0: 2cd1 013e 29b5 d53d c1b7 c73d e048 403e
000002d0: 7f50 b8bb e191 a9bc 940a f23b 7cb9 a93c
000002e0: 7b77 153d 0499 853d d5b1 0e3e c07d 933d
000002f0: af99 5f3e fb9c 07be 2e62 d7bd 852f 8dbe
00000300: 9d6c 21be a316 9dbd 217c 83be 2d61 bdbe
00000310: f14c 5ebe bee5 edbe a341 95bd d02d 1bbd
00000320: dc39 6bbc 84d4 723d 1c3e d8bc 43ce 183d
00000330: 18d3 573e 87b3 d93d ad21 bf3e 3998 213e
00000340: 2e95 7e3d d10b b03d 96ce ff3d 3371 44bc
00000350: 1711 e33d df66 563e 75b3 ae3d e8e9 703e
00000360: 37a6 8cbe e6e7 9ebd dd5d 4dbe dbf0 9f3d
00000370: d99b 133e 921b 103e b7e1 57bc bbfa a1bc
00000380: c15f 4d3d 8b07 e2bc 4389 8bbd 0ee4 51be
00000390: 6ba2 d93d 5cdc 9f3a 8bf4 83bc 8bbc 903d
000003a0: f8e4 f2bd 7090 cbbe 54b7 1dbe 6d65 d2bd
000003b0: 2014 d8bd 1ced b6bd 0cf5 12be 2b7d e9bd
000003c0: 2056 57be d914 a4be bb3f cabe a138 92bd
000003d0: 836d 94bd e895 fdbc 4d9e e9bb 0059 9fbd
000003e0: b499 52bd bff3 803e ad26 143e 7bff b23e
000003f0: cf8e 743b 591a 9cbd ab27 17bc b0ca bc3d

bias f4 [16]
-0.11512401 -0.009630144 -0.06563237 0.1357851 -0.10395367 -0.111957304 -0.06765079 0.034701757
0.041986473 -0.031423077 0.069265835 -0.15520716 0.15088809 0.04100164 0.002342052 -0.0900516
00000000: 23c6 ebbd c0c7 1dbc 446a 86bd 400b 0b3e
00000010: a9e5 d4bd df49 e5bd 7f8c 8abd 6e23 0e3d
00000020: 02fa 2b3d 7cb5 00bd 3fdb 8d3d a0ee 1ebe
00000030: 6882 1a3e 56f1 273d 1d7d 193b f96c b8bd

weight f4 [16, 8, 2, 2]
-0.17242424 -0.10948028 -0.05757314 -0.0008658378 0.11363421 0.12871192 0.0075112297 -0.0025093507
0.3001073 -0.0032868516 0.25349054 -0.25604767 -0.1074918 0.2649503 -0.08058655 0.09073718
-0.015567471 -0.0897743 -0.15505612 0.087768696 -0.17470224 -0.15408587 -0.0033027914 -0.285031
0.050673578 0.19454373 -0.23695534 -0.14583866 0.19343905 0.36299053 0.040767398 0.09820567
0.30016378 0.15391323 0.16995035 0.088561036 -0.33449847 0.21400632 -0.11306206 -0.068991944
-0.093644366 0.17347135 -0.2165579 -0.20295353 0.32535264 0.0057349806 -0.10957441 -0.21285841
0.19871157 0.08149328 0.17172942 -0.25825194 -0.3067074 -0.23663841 -0.1464047 -0.06779138
0.17924301 -0.06035079 0.110456854 -0.24670398 -0.3058898 0.281469 -0.12501405 0.049751382
-0.17371465 -0.37087658 0.091364205 0.06644324 -0.27249527 0.2654807 -0.19891039 -0.081765376
-0.026692046 0.29092845 -0.016078897 0.14293201 0.24358441 0.018521756 0.15343426 0.15034871
0.18569079 0.07728296 0.30205125 -0.13927747 0.034894988 -0.18343563 -0.09856602 0.12264563
-0.16274081 0.6042379 0.21232937 0.6045802 -0.13464059 -0.26926425 -0.22771332 0.13426574
0.14300643 0.2885987 0.06363135 0.25058144 -0.037577227 0.05333877 0.061402787 -0.005692437
-0.029128795 0.10406243 -0.12171105 -0.14921491 0.008659137 -0.29492235 -0.14569794 0.034224574
0.51855 0.41287482 0.20396727 -0.09170233 -0.60355335 -0.028928457 0.01615948 0.039367247
0.17561983 -0.18365002 0.17019694 0.070478536 -0.7030384 -0.43802804 -0.031679727 -0.12268606
0.017446224 0.15664797 -0.112741366 -0.14416353 0.018027592 -0.13505557 0.043857023 -0.12878738
0.21970049 0.16803811 -0.064912036 0.09327958 -0.31233647 -0.24225968 0.06530248 0.04208373
0.08153212 -0.12905255 0.06425924 0.06601333 -0.1876297 -0.21973665 0.39340845 0.19322562
-0.53456956 -0.19684409 0.011546591 0.16878165 0.16690691 -0.1624593 0.27147114 0.079066396
0.060731627 -0.33907488 0.17906876 -0.15278937 -0.2638809 0.10474567 0.09490496 -0.06604229
0.039116196 0.2298855 0.095514715 0.076878965 0.06211511 0.2205536 0.106177695 0.19178852
-0.081526786 -0.28344008 0.031960614 0.28865653 0.13638869 -0.481793 -0.44135118 -0.23844315
0.2386574 0.78247386 -0.12621248 0.2580008 -0.009558964 0.20009011 -0.32969704 -0.23642133
-0.29685557 0.09756051 0.08814806 -0.0112329675 0.27941775 -0.097235076 -0.17633 -0.16570115
0.40312833 -0.08411451 0.055419702 0.018873705 -0.52674276 0.1812099 -0.14913978 -0.029318767
0.24484766 0.12250133 -0.111812904 0.3431031 0.19193575 -0.12489409 0.16532056 -0.11593139
0.17558008 -0.11543156 0.06193406 -0.12911898 0.43213284 0.03992542 0.26006445 0.024584109
-0.31478122 0.18969142 -0.113974184 0.060934115 -0.005212225 -0.37247455 0.071389824 0.0088643655
-0.1723779 -0.37283647 0.1862808 0.26291078 0.0772718 0.24586415 -0.22971214 -0.35541347
-0.20567569 0.23905125 -0.04169012 -0.15904899 0.07306119 0.25267112 -0.42798343 0.021515084
0.12518892 -0.4115459 0.06877026 -0.2025677 0.25869656 -0.21852775 0.16498749 0.08119264
00000000: fb8f 30be 3237 e0bd d0d1 6bbd 64f9 62ba
00000010: 0db9 e83d 0fcd 033e c320 f63b eb73 24bb
00000020: aaa7 993e 3868 57bb 83c9 813e ae18 83be
00000030: a924 dcbd 91a7 873e 900a a5bd 6ad4 b93d
00000040: b50e 7fbc 97db b7bd 08c7 1ebe 13c0 b33d
00000050: 25e5 32be b0c8 1dbe a573 58bb 95ef 91be
00000060: 198f 4f3d 7936 473e 6ca4 72be bb56 15be
00000070: e314 463e e5d9 b93e b7fb 263d 0e20 c93d
00000080: 11af 993e 6e9b 1d3e 7707 2e3e 7d5f b53d
00000090: 6243 abbe 7924 5b3e 158d e7bd a64b 8dbd
000000a0: 9ec8 bfbd 79a2 313e 5bc1 5dbe 0dd3 4fbe
000000b0: 9f94 a63e 81ec bb3b 8c68 e0bd 8ef7 59be
000000c0: 0c7b 4b3e f3e5 a63d d6d9 2f3e 9939 84be
000000d0: c108 9dbe 5751 72be 1deb 15be 35d6 8abd
000000e0: 7b8b 373e 6432 77bd 3437 e23d f89f 7cbe
000000f0: 969d 9cbe b41c 903e af03 00be 1bc8 4b3d
00000100: 41e2 31be 89e3 bdbe 281d bb3d 6513 883d
00000110: 8084 8bbe 16ed 873e 2aaf 4bbe 9b74 a7bd
00000120: 47a9 dabc 93f4 943e e4b7 83bc c55c 123e
00000130: 316e 793e f0ba 973c df1d 1d3e 03f5 193e
00000140: ba25 3e3e 8746 9e3d 76a6 9a3e c19e 0ebe
00000150: 0cee 0e3d 8dd6 3bbe fbdc c9bd a22d fb3d
00000160: 87a5 26be 56af 1a3f df6c 593e c5c5 1a3f
00000170: 39df 09be 01dd 89be ae2d 69be f57c 093e
00000180: 4770 123e 35c3 933e 2751 823d 364c 803e
00000190: 94ea 19bd c179 5a3d 7d81 7b3d 9f87 babb
000001a0: 839f eebc af1e d53d a543 f9bd cbcb 18be
000001b0: 0edf 0d3c 1000 97be d731 15be 112f 0c3d
000001c0: b1bf 043f 5464 d33e ccdc 503e 6ece bbbd
000001d0: 7982 1abf 5ffb ecbc e360 843c 8d3f 213d
000001e0: afd5 333e c00e 3cbe 1b48 2e3e 0d57 903d
000001f0: 53fa 33bf 3645 e0be 9ac2 01bd d442 fbbd
00000200: 62eb 8e3c 5368 203e f2e4 e6bd 9b9f 13be
00000210: 9aae 933c 024c 0abe 6ca3 333d d7e0 03be
00000220: 2af9 603e 2f12 2c3e 9af0 84bd 5d09 bf3d
00000230: 91ea 9fbe ec12 78be 4ebd 853d fd5f 2c3d
00000240: 50fa a63d 5a26 04be 599a 833d ff31 873d
00000250: 0022 40be a502 61be d56c c93e f0dc 453e
00000260: 8dd9 08bf 7f91 49be ea2d 3d3c 19d5 2c3e
00000270: a5e9 2a3e bb5b 26be 44fe 8a3e 90ed a13d
00000280: bac1 783d 399b adbe cd5d 373e d174 1cbe
00000290: 661b 87be e684 d63d 885d c23d 2e41 87bd
000002a0: 4e38 203d 1b67 6b3e 389d c33d b872 9d3d
000002b0: 6a6c 7e3d ced8 613e b173 d93d 3664 443e
000002c0: 84f7 a6bd 0f1f 91be 22e9 023d caca 933e
000002d0: 7aa9 0b3e 92ad f6be c8f8 e1be 712a 74be
000002e0: 9b62 743e 3550 483f d83d 01be ae18 843e
000002f0: 339d 1cbc 6ce4 4c3e 0dce a8be 6f18 72be
00000300: 74fd 97be cecd c73d f886 b43d 7b0a 38bc
00000310: d80f 8f3e 2f23 c7bd da8f 34be 90ad 29be
00000320: d666 ce3e 3a44 acbd c5ff 623d 079d 9a3c
00000330: 9dd8 06bf 178f 393e 19b8 18be e92d f0bc
00000340: 58b9 7a3e fae1 fa3d 2afe e4bd 36ab af3e
00000350: ce8a 443e 79c8 ffbd cb49 293e 706d edbd
00000360: 44cb 333e 6267 ecbd 92ae 7d3d c437 04be
00000370: 8440 dd3e d688 233d 2b27 853e 9d64 c93c
00000380: 012b a1be 783e 423e 4c6b e9bd 0d96 793d
00000390: 50cb aabb fcb4 bebe d434 923d d83b 113c
000003a0: d583 30be 6ce4 bebe 65c0 3e3e 3e9c 863e
000003b0: ad40 9e3d d0c3 7b3e a939 6bbe c1f8 b5be
000003c0: a69c 52be dac9 743e 42c3 2abd bddd 22be
000003d0: 1ba1 953d 1c5e 813e a520 dbbe 6740 b03c
000003e0: 8631 003e 25b6 d2be 6cd7 8c3d e86d 4fbe
000003f0: e073 843e bdc5 5fbe 7bf2 283e 5448 a63d

bias f4 [8]
0.11144827 -0.04538752 -0.16543107 0.026504615 0.21259087 0.06595365 -0.022612637 -0.19246294
00000000: fe3e e43d 44e8 39bd c366 29be 3520 d93c
00000010: 6cb1 593e b512 873d 233e b9bc 0115 45be

weight f4 [8, 4, 2, 2]
0.24117635 -0.27081913 0.4492091 -0.37852988 0.17887692 -0.01068926 0.12917149 -0.15337546
-0.01759192 -0.15221131 0.21017702 0.22653368 0.3397687 -0.3624016 0.34316272 -0.46222013
0.16503668 -0.120392375 0.28262433 -0.11300009 -0.27932164 -0.2333855 -0.07447796 -0.21890956
0.07172652 0.08572067 -0.10889953 -0.24541482 0.02600135 -0.1003802 0.16003524 0.1914302
-0.18173566 -0.14889358 -0.08351355 0.2430826 0.29510406 0.07718937 0.021476816 0.22639619
0.23933844 0.10252493 0.17977001 0.26452127 0.10986868 -0.28824845 -0.10143322 -0.008688006
0.35285127 0.22343884 0.2865167 -0.20813046 0.107348055 -0.28277776 -0.053654253 -0.008154416
-0.3877567 -0.2847869 -0.2164883 0.15068236 0.24226356 0.17148815 -0.006216306 0.24783379
-0.31831908 -0.094515555 -0.2775869 -0.07691707 0.19467312 -0.108876 -0.059349105 -0.3104512
-0.21662296 -0.07558433 0.19504806 0.15287897 -0.11337675 -0.23691662 0.10951539 -0.18161559
-0.08708978 -0.04310851 0.0009436179 -0.24303025 -0.18515866 -0.24998201 -0.16540356 -0.021802217
0.13887534 0.058320664 -0.06165532 -0.1351662 0.036577564 -0.32309392 -0.20017898 -0.12633978
-0.059070546 -0.23695017 -0.17221564 -0.28902608 -0.18115166 -0.10968232 0.05224133 0.044001564
0.077878386 0.14793979 0.054476712 0.14355439 0.30662492 0.090819545 -0.06500795 -0.023675743
-0.07972304 -0.047433693 0.16152667 0.17688188 0.21789783 0.24158108 -0.25643986 -0.0068303533
0.04893482 -0.039638072 0.09615312 -0.052774686 0.13724263 -0.08494925 -0.060856998 0.027722346
00000000: eff6 763e cea8 8abe bcfe e53e abce c1be
00000010: 832b 373e 0222 2fbc 8845 043e 750e 1dbe
00000020: ee1c 90bc 48dd 1bbe a538 573e 72f8 673e
00000030: 2af6 ad3e b48c b9be 06b3 af3e 1ea8 ecbe
00000040: 60ff 283e 4790 f6bd 23b4 903e 976c e7bd
00000050: 3f03 8fbe 9cfc 6ebe e787 98bd d429 60be
00000060: 5be5 923d 528e af3d b706 dfbd 064e 7bbe
00000070: c800 d53c 2294 cdbd 47e0 233e 4706 443e
00000080: ea18 3abe 8f77 18be 2709 abbd a5ea 783e
00000090: e117 973e 7615 9e3d 26f0 af3c 67d4 673e
000000a0: 2315 753e 97f8 d13d a115 383e 556f 873e
000000b0: d502 e13d 4d95 93be 38bc cfbd 2358 0ebc
000000c0: eca8 b43e 27cd 643e 51b2 923e 2720 55be
000000d0: 4cd9 db3d 3fc8 90be 90c4 5bbd 1a9a 05bc
000000e0: 0c88 c6be 97cf 91be 1caf 5dbe 7a4c 1a3e
000000f0: f013 783e 979a 2f3e 27b2 cbbb 24c8 7d3e
00000100: b8fa a2be 5f91 c1bd df1f 8ebe b286 9dbd
00000110: 6458 473e 61fa debd 0c18 73bd 76f3 9ebe
00000120: 69d2 5dbe f5cb 9abd aeba 473e 4e8c 1c3e
00000130: 1232 e8bd 459a 72be 9b49 e03d 70f9 39be
00000140: 205c b2bd 8d92 30bd 205d 773a ecdc 78be
00000150: 3b9a 3dbe 49fb 7fbe 8d5f 29be 909a b2bc
00000160: 5635 0e3e a6e1 6e3d 4a8a 7cbd 0269 0abe
00000170: 5bd2 153d 916c a5be b8fb 4cbe 375f 01be
00000180: f5f3 71bd 11a3 72be 4c59 30be 3afb 93be
00000190: d27f 39be 20a1 e0bd 01fb 553d fc3a 343d
000001a0: b47e 9f3d 877d 173e f922 5f3d ecff 123e
000001b0: f1fd 9c3e 99ff b93d e322 85bd a2f3 c1bc
000001c0: d545 a3bd d549 42bd 3f67 253e 8620 353e
000001d0: 9c20 5f3e 0861 773e 164c 83be 28d1 dfbb
000001e0: e16f 483d 885b 22bd edeb c43d 452a 58bd
000001f0: 5589 0c3e dff9 adbd 3045 79bd f919 e33c

bias f4 [4]
-0.24593355 -0.62103075 -0.011026152 -0.110630825
00000000: 01d6 7bbe dffb 1ebf 09a7 34bc 6a92 e2bd

weight f4 [8, 16, 3, 3]
0.10109293 0.08351188 0.1528515 0.08549046 0.05450245 0.1777538 0.13299422 0.10090522
0.113555685 -0.008287986 -0.05949521 -0.094368964 0.048666198 -0.045062523 -0.093664296 0.04527362
-0.056600995 -0.14914383 0.10515288 -0.05397949 -0.0889515 0.0021039674 -0.06605618 -0.08505719
-0.013192572 -0.14507501 -0.07360602 -0.04699705 0.10762342 0.15091178 -0.12541305 -0.04300642
-0.053157337 -0.23981775 0.004387589 0.06919763 -0.088799566 -0.25120395 0.05226615 -0.1571282
-0.0064540734 0.07748273 0.023492942 0.113345504 0.11630975 0.17391564 0.2271844 0.029454496
-0.12054747 -0.17904454 0.09119054 -0.13669203 -0.028718721 0.059603076 0.27967268 0.096399084
0.1755522 0.029271927 0.075427696 0.032446668 0.17974804 0.08011728 0.12424419 0.06009313
0.037552696 -0.273535 0.019234192 -0.0012368505 -0.19447443 0.07402297 -0.04167057 -0.1648945
-0.10706944 -0.045043703 -0.028205708 -0.07568654 -0.013261418 -0.01904323 -0.023015682 -0.053077146
-0.11919164 0.015062979 0.07680604 -0.021637315 0.107517906 -0.061328016 0.020478953 0.103817016
-0.025448637 0.061571278 -0.18192081 -0.14123209 -0.078066096 -0.053984858 -0.0070316163 0.11116305
-0.119211 -0.05481739 0.03152839 -0.006870266 0.064498074 -0.0514731 0.03299221 -0.15952049
-0.17252412 -0.0054555926 0.050446007 -0.020979231 0.0060541956 0.045056686 0.03959489 0.107366495
0.0012424183 0.032875914 0.16659613 0.06870017 0.1336511 -0.013701176 0.061784983 0.024859466
0.052933987 0.013706357 -0.08056456 -0.054195896 -0.08896281 -0.073116936 0.0046969154 0.015680913
0.08956869 -0.0049495036 -0.03857082 0.05511433 -0.09259792 -0.041578762 0.08393372 -0.054044254
-0.0018599455 -0.053998783 -0.069006234 -0.06723761 -0.05514025 0.05594417 -0.0813244 -0.018439678
-0.061514188 -0.028483877 -0.043978672 -0.04616593 0.10311416 -0.06898721 -0.38404363 -0.055179182
-0.39119008 -0.20029534 -0.08170428 -0.23761475 0.008150321 -0.15447748 0.17019229 0.31490234
0.18813187 0.5026921 -0.14354096 -0.15736333 -0.2692118 0.08720667 -0.010376426 0.07969344
0.27304536 -0.19816533 0.16497084 0.29019263 0.20936708 0.27254972 0.00026831462 -0.034039743
-0.27292028 -0.014402816 -0.07349631 -0.661106 0.29076 0.09701273 0.030441238 0.0094810985
0.080535635 0.1698514 -0.25734288 -0.025761088 -0.13637462 0.22950618 0.120198436 0.24004239
-0.00053398334 0.02859274 0.33230758 -0.05898909 0.2804909 0.90376246 0.16357538 -0.032020736
0.0031588387 0.44943875 0.06215376 0.23835003 0.950223 -0.15409032 -0.061275326 -0.26465708
-0.17952164 -0.07158673 -0.21241687 -0.0073993183 0.12650442 0.02809102 -0.10172717 0.30632377
-0.082642846 -0.1136917 -0.058488 -0.051254533 0.030925054 0.016616082 0.0684725 -0.053356808
-0.08494876 0.07571742 0.051361434 0.095055945 0.0019186597 -0.040436227 -0.113858625 -0.014719904
0.025631139 -0.0055462406 0.100807525 0.063172854 0.14114334 -0.14301106 -0.11703556 -0.15301965
0.065404765 0.06251678 0.020524709 0.020413222 -0.02330064 -0.112732746 0.08438816 -0.05879128
0.045619447 0.068007745 0.023255691 0.00629483 0.09785065 0.14485973 0.11314506 -0.009336517
00000000: cf09 cf3d 4708 ab3d 1b85 1c3e 9f15 af3d
00000010: f63d 5f3d 1805 363e a32f 083e 65a7 ce3d
00000020: e28f e83d 55ca 07bc 40b1 73bd 8444 c1bd
00000030: 3556 473d 7b93 38bd 11d3 bfbd d570 393d
00000040: 72d6 67bd 29b9 18be 655a d73d 9919 5dbd
00000050: 342c b6bd b7e2 093b 7648 87bd 7732 aebd
00000060: a825 58bc 8b8e 14be c1be 96bd fb7f 40bd
00000070: ab69 dc3d 9e88 1a3e 476c 00be 8027 30bd
00000080: 82bb 59bd c992 75be c4c5 8f3b 7db7 8d3d
00000090: 8cdc b5bd ce9d 80be 0815 563d 37e6 20be
000000a0: b17c d3bb 44af 9e3d 4574 c03c b021 e83d
000000b0: ce33 ee3d f116 323e 07a3 683e 8e4a f13c
000000c0: 98e1 f6bd 7457 37be 1bc2 ba3d fff8 0bbe
000000d0: 8643 ebbc 5b22 743d 4231 8f3e e26c c53d
000000e0: f5c3 333e aecb ef3c d679 9a3d cce6 043d
000000f0: df0f 383e 8714 a43d bd73 fe3d 3724 763d
00000100: dbd0 193d c80c 8cbe 0691 9d3c d11d a2ba
00000110: 4e24 47be 5b99 973d c2ae 2abd 1bda 28be
00000120: 3947 dbbd bf7f 38bd a80f e7bc 8b01 9bbd
00000130: 6b46 59bc 8c00 9cbc 628b bcbc 6c67 59bd
00000140: bf1a f4bd b7ca 763c 7c4c 9d3d bd40 b1bc
00000150: 5932 dc3d 1633 7bbd 7ac3 a73c 049e d43d
00000160: a979 d0bc 2a32 7c3d 7349 3abe 259f 10be
00000170: 1ee1 9fbd 3a1f 5dbd 7969 e6bb 74a9 e33d
00000180: e624 f4bd 3388 60bd ea23 013d f81f e1bb
00000190: 9117 843d 75d5 52bd d722 073d 5759 23be
000001a0: 2aaa 30be d4c4 b2bb 79a0 4e3d a3dc abbc
000001b0: 4662 c63b 5c8d 383d 402e 223d f7e2 db3d
000001c0: a4d8 a23a e5a8 063d 2d98 2a3e adb2 8c3d
000001d0: d5db 083e e67a 60bc 4012 7d3d 14a6 cb3c
000001e0: 4fd1 583d a190 603c 08ff a4bd 84fc 5dbd
000001f0: 2232 b6bd 55be 95bd 95e8 993b 4275 803c
00000200: ca6f b73d 722f a2bb 70fc 1dbd 90bf 613d
00000210: faa3 bdbd 7e4e 2abd 71e5 ab3d 825d 5dbd
00000220: 6ac9 f3ba d42d 5dbd 2453 8dbd dfb3 89bd
00000230: beda 61bd b725 653d 688d a6bd cf0e 97bc
00000240: 4df6 7bbd 0557 e9bc fb22 34bd 7c18 3dbd
00000250: 842d d33d 2b49 8dbd 5ea1 c4be 9103 62bd
00000260: 114a c8be 391a 4dbe 9354 a7bd 4851 73be
00000270: ed88 053c 582f 1ebe e346 2e3e e13a a13e
00000280: a4a5 403e 6eb0 003f 67fc 12be da23 21be
00000290: 21d6 89be 6999 b23d e301 2abc 5036 a33d
000002a0: 9acc 8b3e daeb 4abe 1eee 283e 2194 943e
000002b0: 5364 563e a38b 8b3e 94ac 8c39 426d 0bbd
000002c0: 35bc 8bbe caf9 6bbc 3c85 96bd 3e3e 29bf
000002d0: 7fde 943e 9cae c63d e75f f93c 9c56 1b3c
000002e0: deef a43d 87ed 2d3e 72c2 83be eb08 d3bc
000002f0: caa5 0bbe ab03 6b3e 992a f63d accd 753e
00000300: 04fb 0bba 523b ea3c 3824 aa3e 8b9e 71bd
00000310: 819c 8f3e fa5c 673f 4e80 273e 2d28 03bd
00000320: 8504 4f3b d61c e63e f194 7e3d 0812 743e
00000330: d141 733f dac9 1dbe d6fb 7abd 2281 87be
00000340: 85d4 37be 109c 92bd cf83 59be fb75 f2bb
00000350: 608a 013e 241f e63c 5656 d0bd 78d6 9c3e
00000360: a740 a9bd 32d7 e8bd 1d91 6fbd 46f0 51bd
00000370: 8a56 fd3c 731e 883c 4f3b 8c3d ab8c 5abd
00000380: 9ef9 adbd bc11 9b3d 5e60 523d b1ac c23d
00000390: 897b fb3a 75a0 25bd b62e e9bd c12b 71bc
000003a0: 65f8 d13c 3dbd b5bb 2d74 ce3d c560 813d
000003b0: e187 103e 7e71 12be 57b0 efbd 2fb1 1cbe
000003c0: eff2 853d cc08 803d 6f23 a83c a139 a73c
000003d0: fce0 bebc 6de0 e6bd b3d3 ac3d 20cf 70bd
000003e0: 75db 3a3d a547 8b3d b882 be3c dc44 ce3b
000003f0: ec65 c83d 1c56 143e 99b8 e73d 31f8 18bc

bias f4 [8]
0.12042813 0.13063176 -0.08179804 -0.0022215687 0.22133555 0.1535733 0.05903652 0.08335462
00000000: 06a3 f63d 55c4 053e bb85 a7bd bd97 11bb
00000010: c9a5 623e 5242 1d3e 47d0 713d d4b5 aa3d
