dataset_create/model.pt (torch, 44940 bytes, 25 tensors)

weight f4 [4, 1, 3, 3]
0.23085766 -0.2191686 0.22154978 -0.21944052 -0.15831226 -0.19412045 -0.014704913 -0.35008392
0.1703574 0.18557121 -0.036532857 -0.27185667 -0.24734479 -0.33053768 0.27336046 0.12626249
-0.14934456 -0.001342948 -0.07182261 -0.13192585 -0.04414394 -0.280429 -0.11130884 -0.12171257
0.15928906 0.25381002 0.003419586 -0.20429997 0.012069923 -0.10352985 0.0013971102 0.21289973
-0.03313531 -0.04546645 0.13536131 0.0346471
00000000: f365 6c3e bc6d 60be f2dd 623e 04b5 60be
00000010: 9c1c 22be 83c7 46be e0ec 70bc 333e b3be
00000020: 2c72 2e3e 6106 3e3e 7aa3 15bd cc30 8bbe
00000030: f447 7dbe 3c3c a9be e7f5 8b3e f44a 013e
00000040: c8ed 18be db05 b0ba bc17 93bd 9217 07be
00000050: 47d0 34bd 6494 8fbe e4f5 e3bd 7144 f9bd
00000060: ac1c 233e 63f3 813e 221b 603b 0334 51be
00000070: edc0 453c 7507 d4bd 3d1f b73a 6302 5a3e
00000080: e4b8 07bd 073b 3abd 289c 0a3e 1eea 0d3d

bias f4 [4]
-0.062074523 -0.252025 0.42783937 -0.38325164
00000000: db41 7ebd 6c09 81be c30d db3e 8f39 c4be

weight f4 [4, 4, 3, 3]
0.039007686 0.15154134 0.087261364 -0.06688925 -0.020150196 0.0046227453 -0.011047974 -0.009557985
0.1459729 -0.032284632 -0.05168369 -0.0634955 -0.03505697 -0.11766042 -0.05919575 0.0066448012
0.057844836 0.16527177 -0.06830195 0.0657012 -0.07476814 -0.03086403 -0.083071046 0.0805501
0.13887846 0.0009462818 -0.1480914 -0.002460484 0.00036456788 0.0285789 -0.05083533 0.0028382516
0.040717497 -0.0033473822 -0.0648348 -0.0015747524 -0.008275668 0.07355189 -0.058516026 0.13499069
-0.04880798 0.004022223 0.13708839 -0.08045552 0.0033305613 -0.15452236 -0.0150820315 0.23974359
-0.07835971 0.11650567 -0.10843555 -0.12528731 0.10437418 -0.016512342 0.029897762 -0.04173287
0.17247467 -0.0870123 -0.12765639 -0.018378207 -0.060116503 -0.08973353 0.20616809 0.0045987214
-0.11374686 0.11371257 0.015926827 0.053207174 -0.00673733 -0.05965442 0.124420844 -0.11619243
-0.027105767 0.07058034 -0.020564327 0.1417518 -0.1195597 0.113165535 -0.046461742 0.12752713
-0.12216076 0.040053196 0.08010092 0.036353648 0.022676539 0.17756835 0.114318706 -0.026826695
0.11274447 -0.10930187 -0.008622841 0.19173902 -0.042311423 0.07255201 -0.08950175 0.003361554
0.0016156764 0.0076099075 -0.009093893 0.018896323 0.024870906 -0.10209669 -0.03408034 -0.053853367
0.05402648 0.0010875354 0.13864692 -0.13001606 0.07679806 0.00094595004 -0.044053826 0.09641775
0.038965672 0.021050189 0.1331747 -0.019891148 -0.0053383866 -0.13051622 -0.010717509 0.04670471
0.08559203 0.11813184 0.025384702 -0.011467085 0.013897022 0.048597537 0.15390341 -0.035540078
0.105188504 0.015038551 -0.002565724 0.12929052 0.044013735 -0.10618181 0.109681375 -0.11587877
0.05514603 0.114545844 -0.055243313 -0.14720774 -0.038698137 -0.06677168 -0.1474771 0.045887135
00000000: 86c6 1f3d a72d 1b3e 16b6 b23d 3bfd 88bd
00000010: 0612 a5bc 667a 973b 9002 35bc 1899 1cbc
00000020: eb79 153e e43c 04bd 47b2 53bd ee09 82bd
00000030: e697 0fbd f2f7 f0bd 3e77 72bd a2bc d93b
00000040: b5ee 6c3d 013d 293e e5e1 8bbd 5a8e 863d
00000050: 0a20 99bd 90d6 fcbc 2721 aabd 73f7 a43d
00000060: 2836 0e3e e60f 783a 46a5 17be 1240 21bb
00000070: 7923 bf39 4c1e ea3c b538 50bd f601 3a3b
00000080: 64c7 263d c15f 5bbb 1cc8 84bd ec67 ceba
00000090: ab96 07bc 60a2 963d 80ae 6fbd 003b 0a3e
000000a0: e0ea 47bd dacc 833b e660 0c3e ddc5 a4bd
000000b0: 8c45 5a3b 1c3b 1ebe a01a 77bc 587f 753e
000000c0: 0e7b a0bd 869a ee3d 7513 debd 514b 00be
000000d0: 21c2 d53d e444 87bc 27ec f43c 16f0 2abd
000000e0: 339d 303e 8133 b2bd 5bb8 02be e58d 96bc
000000f0: b93c 76bd 37c6 b7bd ba1d 533e dfb0 963b
00000100: 1df4 e8bd 23e2 e83d fa78 823c c4ef 593d
00000110: d2c4 dcbb 3158 74bd 5bd0 fe3d 4cf6 edbd
00000120: ea0c debc 6d8c 903d 8576 a8bc 6227 113e
00000130: b7db f4bd 55c3 e73d ab4e 3ebd 7996 023e
00000140: 6c2f fabd d20e 243d f30b a43d 90e7 143d
00000150: 26c4 b93c 7ad4 353e ed1f ea3d a8c3 dbbc
00000160: 93e6 e63d a9d9 dfbd d146 0dbc 3c57 443e
00000170: be4e 2dbd 2696 943d b24c b7bd 844d 5c3b
00000180: 1bc5 d33a 885c f93b 8dfe 14bc 76cc 9a3c
00000190: 12be cb3c 1218 d1bd d497 0bbd 5995 5cbd
000001a0: df4a 5d3d a28b 8e3a 75f9 0d3e ee22 05be
000001b0: 4d48 9d3d a2f9 773a c971 34bd ab76 c53d
000001c0: 789a 1f3d 7271 ac3c f35e 083e c3f2 a2bc
000001d0: a2ed aebb 0ba6 05be 7e98 2fbc 704d 3f3d
000001e0: e04a af3d 1bef f13d 94f3 cf3c 71e0 3bbc
000001f0: 56b0 633c 360e 473d db98 1d3e 7992 11bd
00000200: 126d d73d 4164 763c b525 28bb bc64 043e
00000210: bf47 343d d975 d9bd a1a0 e03d d951 edbd
00000220: cee0 613d 0397 ea3d d046 62bd a0bd 16be
00000230: f081 1ebd 97bf 88bd 3d04 17be 26f4 3b3d

bias f4 [4]
-0.06852958 -0.14387597 0.083144374 0.18513234
00000000: 3d59 8cbd 3954 13be 9947 aa3d 5593 3d3e

weight f4 [8, 4, 3, 3]
0.10948058 0.08077932 -0.14506714 -0.023881534 -0.05719791 0.055505883 -0.12038973 -0.13464668
0.213555 0.039546262 -0.11077193 0.053388912 -0.09489895 0.10330912 -0.16483735 0.22959177
-0.13731399 0.13017936 -0.11054617 0.11480275 -0.07796449 -0.13114132 0.052459482 -0.093964435
-0.066346064 0.045122646 -0.010152536 -0.11719699 0.12951976 -0.09458493 0.061579116 -0.0046581677
-0.19517764 -0.09073747 -0.16036576 0.07576376 0.105350316 0.044854753 0.037990294 0.082372636
0.09113763 -0.0004209265 -0.026610898 0.0955086 0.045107886 0.10141961 0.11334232 0.07636339
0.10956517 -0.09514355 -0.1904486 -0.20294893 0.06314065 0.18257089 -0.1398328 -0.09290489
-0.14839037 -0.075688586 0.038454697 0.09341003 0.049983557 0.10767488 -0.15833548 -0.10199297
0.154667 -0.1017906 -0.009580004 -0.114430085 -0.11919981 -0.035984136 -0.047213364 -0.15101177
-0.1676844 -0.10480002 0.10373447 -0.10553112 -0.1337456 -0.06396606 0.1715754 0.01208837
-0.04977375 -0.06756728 -0.091983266 0.07460376 -0.023127647 -0.07407429 -0.04520113 -0.15017498
0.039585926 -0.09765033 0.025224112 0.14728881 0.09155067 -0.18569793 0.018089233 -0.1111689
-0.07382017 -0.10373702 0.019148722 0.14175765 0.10646906 -0.030925944 -0.08701429 0.0268469
-0.020601047 0.15448919 0.040705413 0.0067396984 -0.100033686 0.0041754986 -0.0044157044 0.11795823
0.09582134 -0.17711489 0.0124873435 0.16031274 0.06181435 0.17449765 0.14743699 -0.10542832
-0.0421045 0.029101474 0.01993374 0.06269924 -0.055648427 0.18713929 0.08138498 -0.1420239
0.12544052 0.03067925 0.028002046 -0.13373955 -0.119279936 -0.004114028 0.12237307 -0.083337106
-0.08752437 -0.15205602 0.12611635 -0.081021436 -0.10396505 -0.13080528 -0.029808745 -0.12836494
0.11831342 0.065027334 0.012454515 -0.010974983 0.05840512 -0.17951779 0.22520757 -0.082590535
0.12057903 -0.18552384 -0.07021011 0.0379515 -0.19478989 0.031036256 -0.18559091 -0.09933064
-0.24887672 0.11262201 -0.09225422 -0.14256099 0.02478607 -0.15957113 0.13007304 0.027430542
-0.041854024 -0.023270171 -0.07409045 0.00595744 -0.02526777 0.09925249 -0.06274039 -0.09774881
-0.06478566 -0.16491704 0.08295099 0.09971918 0.11657207 -0.08161819 -0.03921845 0.011930754
-0.057528336 0.0825465 0.071620956 0.1538317 -0.12042033 -0.024629213 -0.09848161 -0.008554472
0.06790493 0.046641547 0.1355292 -0.10813271 0.06091476 -0.13321261 -0.067968294 0.1226081
0.019475158 -0.05751162 -0.07818475 -0.072762646 -0.14643814 0.034713384 -0.028070336 -0.043666735
-0.10333544 0.07241778 0.030939851 0.03756942 0.10277196 0.06436245 -0.14718693 0.16080594
-0.093579136 -0.08989806 0.10371954 -0.02424606 0.14658397 0.14092128 -0.13248281 -0.20319968
0.107769735 -0.16793852 -0.054282647 -0.10648756 0.021205848 -0.0041569103 -0.03984359 0.08111262
0.13955395 -0.11222662 0.179316 0.18043254 -0.09755643 -0.10493638 -0.108817056 -0.011438449
-0.060148865 -0.1750101 0.064916715 0.09467809 0.013494359 0.13599029 -0.016706312 -0.09472362
-0.09812583 -0.022484707 -0.031137511 -0.04309155 0.013466201 -0.031635918 0.043038696 -0.08376664
00000000: 5b37 e03d a16f a53d 7b8c 14be 35a3 c3bc
00000010: 5b48 6abd 235a 633d e48e f6bd d2e0 09be
00000020: 29ae 5a3e 43fb 213d 65dc e2bd 55ae 5a3d
00000030: 615a c2bd bb93 d33d 1fcb 28be 1b1a 6b3e
00000040: 0a9c 0cbe bd4d 053e 0866 e2bd b41d eb3d
00000050: d9ab 9fbd e949 06be c1df 563d 6d70 c0bd
00000060: 72e0 87bd 86d2 383d d356 26bc fa04 f0bd
00000070: d4a0 043e beb5 c1bd 623a 7c3d 8ba3 98bb
00000080: a6dc 47be 91d4 b9bd ec36 24be 082a 9b3d
00000090: e8c1 d73d 9eb9 373d b69b 1b3d fcb2 a83d
000000a0: 5ea6 ba3d ccaf dcb9 19ff d9bc 039a c33d
000000b0: 0cc3 383d 16b5 cf3d 0520 e83d 6964 9c3d
000000c0: b463 e03d 9fda c2bd f504 43be d8d1 4fbe
000000d0: e34f 813d ddf3 3a3e 5430 0fbe eb44 bebd
000000e0: a5f3 17be 9e02 9bbd ac82 1d3d c24d bf3d
000000f0: 8fbb 4c3d a684 dc3d b222 22be b1e1 d0bd
00000100: 0761 1e3e 9777 d0bd 73f5 1cbc 525a eabd
00000110: 081f f4bd 1a64 13bd cd62 41bd d4a2 1abe
00000120: 76b5 2bbe 65a1 d6bd bd72 d43d b320 d8bd
00000130: 9bf4 08be a300 83bd 76b1 2f3e 4c0e 463c
00000140: 8fdf 4bbd b760 8abd b961 bcbd dbc9 983d
00000150: 3176 bdbc 43b4 97bd d224 39bd 78c7 19be
00000160: da24 223d e5fc c7bd cca2 ce3c e1d2 163e
00000170: eb7e bb3d 9927 3ebe df2f 943c 85ac e3bd
00000180: 072f 97bd 1374 d4bd c8dd 9c3c eb28 113e
00000190: 730c da3d 6858 fdbc 8c34 b2bd 08ee db3c
000001a0: 87c3 a8bc 6a32 1e3e b8ba 263d b0d8 dc3b
000001b0: 76de ccbd 9fd2 883b 9db1 90bb 1694 f13d
000001c0: fb3d c43d 9b5d 35be b797 4c3c 0629 243e
000001d0: 0b31 7d3d 83af 323e b9f9 163e ceea d7bd
000001e0: c575 2cbd 3766 ee3c 154c a33c 7668 803d
000001f0: 9bef 63bd 71a1 3f3e 2bad a63d b76e 11be
00000200: 7b73 003e 0d53 fb3c 8c64 e53c 05f3 08be
00000210: 0a49 f4bd f8ce 86bb bb9e fa3d a5ac aabd
00000220: fa3f b3bd 93b4 1bbe a524 013e 91ee a5bd
00000230: a1eb d4bd d2f1 05be 7831 f4bc 1972 03be
00000240: 4e4e f23d 0d2d 853d 060e 4c3c 6ad0 33bc
00000250: 353a 6f3d 83d3 37be d09c 663e 3a25 a9bd
00000260: 23f2 f63d f6f9 3dbe 51ca 8fbd 0873 1b3d
00000270: 0077 47be bf3f fe3c 8b0b 3ebe dd6d cbbd
00000280: 8ad9 7ebe 5ea6 e63d c8ef bcbd 82fb 11be
00000290: 280c cb3c 9d66 23be de31 053e 04b6 e03c
000002a0: 206f 2bbd 16a1 bebc bcbc 97bd a136 c33b
000002b0: 5bfe cebc e444 cb3d 097e 80bd 8730 c8bd
000002c0: 58ae 84bd 03e0 28be 35e2 a93d 9239 cc3d
000002d0: 56bd ee3d 7027 a7bd 87a3 20bd 3679 433c
000002e0: d5a2 6bbd 240e a93d 02ae 923d 0f86 1d3e
000002f0: ef9e f6bd 34c3 c9bc bab0 c9bd 0e28 0cbc
00000300: bd11 8b3d 350b 3f3d 2bc8 0a3e af74 ddbd
00000310: c181 793d e368 08be f632 8bbd f519 fb3d
00000320: 5e8a 9f3c 4e91 6bbd 541f a0bd 9504 95bd
00000330: e1f3 15be 9f2f 0e3d c3f3 e5bc e4db 32bd
00000340: 88a1 d3bd c64f 943d 9275 fd3c 64e2 193d
00000350: 1b7a d23d 76d0 833d 2cb8 16be 50aa 243e
00000360: 6ba6 bfbd 791c b8bd e96a d43d ac9f c6bc
00000370: 1c1a 163e ab4d 103e 93a9 07be 9413 50be
00000380: 61b6 dc3d 13f8 2bbe 7b57 5ebd 2616 dabd
00000390: e3b7 ad3c b136 88bb 0833 23bd 601e a63d
000003a0: 3be7 0e3e 12d7 e5bd 9d9e 373e 4fc3 383e
000003b0: aacb c7bd e3e8 d6bd 7adb debd 5568 3bbc
000003c0: a85e 76bd d935 33be 0ef3 843d 96e6 c13d
000003d0: 7217 5d3c 0a41 0b3e addb 88bc 75fe c1bd
000003e0: 32f6 c8bd d931 b8bc 1814 ffbc c480 30bd
000003f0: 57a1 5c3c aa94 01bd 5849 303d d88d abbd

bias f4 [8]
-0.21392815 0.23225108 0.27877775 -0.22027592 -0.022469789 0.20597479 0.022711467 0.23856767
00000000: fb0f 5bbe 3ad3 6d3e f5bb 8e3e 0390 61be
00000010: 9012 b8bc 0eeb 523e 660d ba3c 154b 743e

weight f4 [8, 8, 3, 3]
-0.03604481 -0.11429809 -0.1519453 -0.068810165 -0.110217325 -0.1800313 0.028891388 -0.029612606
-0.1552328 0.012145123 0.026478253 0.057570465 -0.06579682 -0.071220264 0.015397317 0.074589424
-0.016244901 0.042414688 -0.0048315707 -0.03804224 0.01843762 0.031990416 -0.022154722 -0.07112345
-0.08775594 -0.10782006 0.03615562 0.09109069 -0.09001069 0.04752157 -0.13681482 -0.095276475
-0.13275722 -0.055497386 0.03750061 0.021912685 -0.065209225 -0.07076256 0.0780322 0.08008712
-0.08890896 0.05350821 0.0069244923 0.06248037 -0.009169648 -0.037073385 0.09448726 0.04391043
0.10740482 0.03686354 0.12325058 0.04353982 0.0256315 0.09229887 0.0681284 -0.13798718
0.07512326 -0.1352529 -0.09750205 0.015762659 0.0060875663 -0.09775184 -0.09044411 0.022984112
-0.06481512 -0.086307704 0.12613422 0.14169566 -0.019565314 0.008515964 0.031836934 -0.10278217
-0.13846086 -0.04353319 -0.10253862 -0.0008303901 -0.14859469 0.0809811 -0.03800107 0.020318087
-0.028363783 -0.04520202 -0.024354506 0.03393647 -0.029919231 0.035633788 0.07061057 0.0018115179
0.016067848 0.005807963 0.028515466 -0.023064148 -0.1345743 -0.029689968 -0.082864515 0.0657288
0.028407678 -0.014246315 -0.0822234 -0.118264735 0.048314285 -0.11782619 -3.8901464e-05 0.04812337
-0.10043737 -0.19098684 0.0009769708 -0.040840425 -0.03150588 -0.0688687 0.01082773 -0.107368015
-0.16259718 0.010802811 -0.025212858 0.03748412 -0.11925771 -0.068194635 -0.067923866 -0.06705338
0.051349975 0.012189445 -0.091702886 0.034029476 -0.0055420063 0.071150675 -0.048928056 -0.05965666
0.0075003896 -0.021475893 0.019298362 0.0913485 -0.03877265 -0.10842483 -0.114246264 -0.079455055
0.096964076 0.019110309 0.073365584 -0.040434517 -0.13526735 -0.10877169 0.08054304 -0.03727198
0.04476957 -0.028413502 0.024971902 0.051188417 -0.080150515 0.049364734 0.027413359 -0.05938383
-0.074344106 0.0070597352 0.09082073 -0.028697621 -0.13011332 -0.09339513 -0.043278053 -0.115173064
-0.025381682 0.007951669 -0.06018182 0.0019346004 -0.027445836 -0.054003913 0.04303379 0.03057103
-0.016376395 0.04704204 0.040010363 0.09078621 -0.048693396 0.06297556 -0.038042568 -0.044115517
0.052133325 0.079214565 -0.048034184 -0.036496203 -0.09486144 -0.07226779 0.05884621 -0.06494906
0.11184174 -0.008544124 0.13524397 -0.023928715 -0.04218079 0.028042985 0.03218081 -0.17254044
0.00112308 -0.12916197 0.044380903 0.06855317 0.04937459 -0.057547115 0.003706413 -0.08650053
-0.0011565571 -0.11873335 -0.052314594 0.0321257 0.045935083 -0.050087754 -0.0036201682 0.01148214
-0.121876284 -0.12917878 -0.04082296 -0.13181075 -0.13202731 -0.008888992 -0.021769146 -0.010059534
0.085731626 -0.09108409 0.044015396 0.1922518 0.043372452 0.030868351 0.06625561 0.11711219
0.051935676 -0.05806971 0.1026264 -0.07941646 0.029450973 -0.0961866 0.07419913 0.0040633976
0.04580161 -0.07939317 -0.048987854 -0.024263589 -0.13349105 -0.089857236 -0.013606062 -0.144259
-0.15776888 0.037320446 -0.0071247653 -0.018017394 -0.06236543 -0.0022380848 0.096292995 0.031950537
0.02797809 0.11585657 0.042218994 0.059253618 0.07949301 -0.064205535 -0.10050914 0.050705288
00000000: b9a3 13bd 1e15 eabd 8c97 1bbe 58ec 8cbd
00000010: 9fb9 e1bd 205a 38be a2ad ec3c 2396 f2bc
00000020: 59f5 1ebe 57fc 463c ece8 d83c 02cf 6b3d
00000030: 7cc0 86bd eedb 91bd 0745 7c3c 57c2 983d
00000040: 0714 85bc 06bb 2d3d 2752 9ebb 2ed2 1bbd
00000050: 7e0a 973c 6208 033d d27d b5bc 2ca9 91bd
00000060: 63b9 b3bd c3d0 dcbd ea17 143d c18d ba3d
00000070: 8657 b8bd faa5 423d 2f19 0cbe 5020 c3bd
00000080: 82f1 07be 3a51 63bd 3d9a 193d 3b82 b33c
00000090: 6a8c 85bd f6eb 90bd 59cf 9f3d b704 a43d
000000a0: e715 b6bd 6d2b 5b3d dae6 e23b 6beb 7f3d
000000b0: 4b3c 16bc 43da 17bd 8982 c13d 6cdb 333d
000000c0: 0ff7 db3d 39fe 163d cd6a fc3d cf56 323d
000000d0: 27f9 d13c 3107 bd3d e786 8b3d 834c 0dbe
000000e0: 39da 993d bc7f 0abe 28af c7bd b120 813c
000000f0: 357a c73b 1e32 c8bd c33a b9bd 2d49 bc3c
00000100: cabd 84bd 18c2 b0bd 5429 013e ab18 113e
00000110: 7047 a0bc 8b86 0b3c 7267 023d 757f d2bd
00000120: afc8 0dbe dc4f 32bd c5ff d1bd 89ae 59ba
00000130: 3529 18be 6bd9 a53d 03a7 1bbd 1e72 a63c
00000140: 2a5b e8bc c125 39bd 1a83 c7bc f800 0b3d
00000150: 2d19 f5bc bcf4 113d 469c 903d 7470 ed3a
00000160: b8a0 833c ba50 be3b 4499 e93c 06f1 bcbc
00000170: d8cd 09be 6038 f3bc dfb4 a9bd d29c 863d
00000180: 38b7 e83c 6069 69bc be64 a8bd c834 f2bd
00000190: 33e5 453d dc4e f1bd 212a 23b8 031d 453d
000001a0: 1cb2 cdbd 0e92 43be b30d 803a 4a48 27bd
000001b0: 4f0c 01bd 080b 8dbd cb66 313c c3e3 dbbd
000001c0: e07f 26be 46fe 303c 328b cebc f388 193d
000001d0: 633d f4bd a1a9 8bbd ab1b 8bbd 4853 89bd
000001e0: 5a54 523d 3db6 473c b9ce bbbd 7e62 0b3d
000001f0: b899 b5bb 72b7 913d c968 48bd 8b5a 74bd
00000200: d4c5 f53b 36ee afbc 9917 9e3c ec14 bb3d
00000210: 12d0 1ebd d60d debd f2f9 e9bd 55b9 a2bd
00000220: 1a95 c63d 398d 9c3c b240 963d aa9e 25bd
00000230: 8683 0abe b1c3 debd c0f3 a43d 81aa 18bd
00000240: 4c60 373d 6fc3 e8bc e091 cc3c f2aa 513d
00000250: f425 a4bd ad32 4a3d fb91 e03c 753c 73bd
00000260: b941 98bd 5a55 e73b 3800 ba3d 4617 ebbc
00000270: 6d3c 05be f245 bfbd 5444 31bd dbdf ebbd
00000280: 3fed cfbc b847 023c 3681 76bd 6b92 fd3a
00000290: 17d6 e0bc 3533 5dbd 3344 303d 1970 fa3c
000002a0: ca27 86bc 27af 403d e8e1 233d 1fee b93d
000002b0: ba72 47bd 55f9 803d 86d2 1bbd 79b2 34bd
000002c0: c189 553d 3f3b a23d 7ebf 44bd 0b7d 15bd
000002d0: b746 c2bd 2301 94bd b908 713d 0304 85bd
000002e0: 480d e53d a7fc 0bbc 657d 0a3e 2706 c4bc
000002f0: c4c5 2cbd 67ba e53c 06d0 033d 71ae 30be
00000300: 5034 933a 0943 04be c0c8 353d 9b65 8c3d
00000310: 033d 4a3d 86b6 6bbd 4be7 723b 3127 b1bd
00000320: 9e97 97ba 782a f3bd d447 56bd 3d96 033d
00000330: 6d26 3c3d d128 4dbd 5840 6dbb 961f 3c3c
00000340: 469a f9bd 7147 04be fa35 27bd 66f9 06be
00000350: 2b32 07be 22a3 11bc 3555 b2bc bed0 24bc
00000360: 1094 af3d 4c8a babd 7d49 343d a8dd 443e
00000370: 50a7 313d a0df fc3c 05b1 873d 84d8 ef3d
00000380: 81ba 543d 81da 6dbd ca2d d23d 19a5 a2bd
00000390: 2b43 f13c 7bfd c4bd b7f5 973d 4026 853b
000003a0: 789a 3b3d e398 a2bd 7da7 48bd 6fc4 c6bc
000003b0: e1b1 08be 1207 b8bd f6eb 5ebc a2b8 13be
000003c0: 2a8e 21be 53dd 183d dd76 e9bb 3799 93bc
000003d0: e572 7fbd d5ac 12bb 4335 c53d 91de 023d
000003e0: 4f32 e53c 3646 ed3d d3ed 2c3d ecb3 723d
000003f0: 3bcd a23d 317e 83bd bcd7 cdbd 59b0 4f3d

bias f4 [8]
0.23005041 0.21462178 -0.17751278 -0.1306855 -0.21210031 -0.2323528 0.27044263 -0.2118345
00000000: 5692 6b3e d0c5 5b3e e9c5 35be 6bd2 05be
00000010: d330 59be e4ed 6dbe 7577 8a3e 25eb 58be

weight f4 [16, 8, 3, 3]
0.01792257 0.061211057 -0.035752166 -0.0037169766 -0.009307977 0.086716115 0.025805866 -0.057775564
-0.07496039 0.07160557 0.18075554 0.08143758 0.041353423 0.09335629 0.069007725 0.044247814
-0.10767605 -0.060962405 -0.08171034 -0.07483938 -0.130836 0.015148817 -0.040187143 -0.07813153
-0.044473954 -0.06575395 -0.020118779 -0.08193864 -0.009387206 -0.06199942 -0.05707574 -0.035597805
-0.013161892 -0.05124615 -0.0240948 0.00016598855 -0.14635849 -0.057466127 -0.03618083 -0.04480375
0.12250258 -0.018337568 0.020046674 0.07336273 -0.009668808 0.011205969 0.050541777 -0.16193366
0.06152741 0.13088611 0.007963454 -0.08402309 0.023374444 0.05380532 0.14343673 0.08771688
0.044547293 -0.069127366 -0.028077722 -0.065398805 -0.077458434 -0.07563709 0.01984886 -0.22904061
-0.092942476 -0.17986634 -0.035062112 0.005629213 -0.026580539 -0.10979077 -0.09025607 -0.13331193
-0.04894934 0.036570925 0.09958256 0.03824698 -0.014452185 -0.07385659 0.02901039 -0.037975866
-0.07045628 0.06857083 0.058257215 -0.019039555 0.059462905 0.02005738 -0.057203118 0.07126307
0.033865433 0.11382806 -0.10704305 0.04670953 0.04254684 -0.095582925 0.069934316 9.8581535e-05
0.017326247 -0.08786235 -0.07149533 -0.033362947 -0.032311663 0.13230416 -0.016536633 -0.0069085825
0.09378344 0.057110865 -0.059550714 0.09554623 -0.24325314 -0.06207433 -0.06692241 -0.087284945
0.15817964 0.013655042 -0.12710737 0.089715354 -0.07289872 -0.05396147 -0.116810195 -0.024522131
-0.08118283 0.04170403 0.04369187 -0.16462098 -0.063852794 -0.15432824 0.09120528 0.09270622
0.05657975 0.110538155 0.06912524 -0.043382317 0.07329602 -0.04735015 -0.04981684 -0.18804847
-0.15101136 -0.1389226 -0.06744086 0.020721273 -0.04210927 -0.1666987 0.028268171 -0.13559993
0.12113833 0.13867359 0.14609003 0.0385037 0.07222601 0.123485796 0.10794335 -0.044495564
-0.07623697 0.04487312 0.045815174 0.048598453 0.069848426 0.017859612 0.012839589 0.11325417
-0.026376622 -0.07044893 -0.1375063 -0.056795973 -0.05553449 -0.0014422069 -0.07515959 0.008124804
-0.032013834 0.059962664 -0.00083221914 -0.0036557869 -0.005895626 0.006399859 -0.030791253 -0.0912885
-0.033620585 0.09915377 -0.023204284 -0.047483195 -0.19435994 0.040485524 -0.098658115 0.04031398
0.08692978 -0.066304356 -0.0008206043 0.028505161 -0.018020941 -0.15358894 -0.14627437 -0.1897717
-0.06593932 0.065401554 0.116145425 -0.1444536 -0.07365591 0.06149216 0.1200096 0.0029636167
-0.019685438 0.062465593 -0.08660326 0.06736103 -0.06834933 -0.031378098 -0.015424243 -0.10117835
-0.12103977 -0.21630211 -0.026644906 -0.0346572 -0.109815046 -0.12740812 0.025129067 -0.2039507
-0.026388168 -0.03013404 -0.059527103 0.10266654 0.06873249 -0.029345654 0.088363126 0.003259441
0.007480945 0.0010571879 0.11219681 0.11725982 0.16548336 0.07323579 -0.06510253 0.006107846
0.13535585 0.068690054 0.008691624 -0.093626514 0.059088495 0.07870475 -0.08759197 0.044550855
-0.07441179 0.029937232 -0.08241467 0.024224518 -0.033776317 -0.12585554 -0.10310256 0.039761815
-0.12552765 -0.101399764 -0.079140335 -0.038101956 -0.014990638 -0.004650024 0.012377197 -0.018895987
00000000: 5bd2 923c 72b8 7a3d dd70 12bd 8598 73bb
00000010: 7c80 18bc 3898 b13d d366 d33c 12a6 6cbd
00000020: d584 99bd f1a5 923d fb17 393e bfc8 a63d
00000030: 3562 293d 9531 bf3d ec53 8d3d 323d 353d
00000040: 4385 dcbd b7b3 79bd c057 a7bd 6445 99bd
00000050: dff9 05be be32 783c 469b 24bd 6c03 a0bd
00000060: 522a 36bd 02aa 86bd 23d0 a4bc 72cf a7bd
00000070: cccc 19bc 1bf3 7dbd 40c8 69bd 01cf 11bd
00000080: faa4 57bc 7ce7 51bd 7562 c5bc 360d 2e39
00000090: 00df 15be 9a61 6bbd 5a32 14bd 2384 37bd
000000a0: a2e2 fa3d ab38 96bc ec38 a43c 333f 963d
000000b0: ec69 1ebc 3e99 373c e504 4f3d f0d1 25be
000000c0: 2a04 7c3d 0207 063e 2679 023c 4c14 acbd
000000d0: c37b bf3c f862 5c3d 14e1 123e e8a4 b33d
000000e0: 3977 363d a692 8dbd 4003 e6bc cfef 85bd
000000f0: 87a2 9ebd 9ee7 9abd 149a a23c 9f89 6abe
00000100: a058 bebd e22e 38be 4a9d 0fbd 4375 b83b
00000110: 6ebf d9bc fcd9 e0bd 2dd8 b8bd ec82 08be
00000120: 1a7f 48bd 65cb 153d f1f1 cb3d dea8 1c3d
00000130: dbc8 6cbc 2042 97bd 33a7 ed3c 958c 1bbd
00000140: 624b 90bd dd6e 8c3d 1e9f 6e3d d7f8 9bbc
00000150: 608f 733d 604f a43c d14d 6abd 5ff2 913d
00000160: 7bb6 0a3d b01e e93d 6339 dbbd 7e52 3f3d
00000170: 9845 2e3d fbc0 c3bd b939 8f3d 8fbd ce38
00000180: c6ef 8d3c 2df1 b3bd 256c 92bd 96a7 08bd
00000190: 3c59 04bd be7a 073e d577 87bc 6461 e2bb
000001a0: 8811 c03d 15ed 693d 73eb 73bd bead c33d
000001b0: 5a17 79be a741 7ebd 9e0e 89bd 73c2 b2bd
000001c0: d8f9 213e 66b9 5f3c 6f28 02be afbc b73d
000001d0: ed4b 95bd b406 5dbd 2f3a efbd a3e2 c8bc
000001e0: 2f43 a6bd d8d1 2a3d 3ff6 323d 6792 28be
000001f0: 41c5 82bd 3908 1ebe d5c9 ba3d c2dc bd3d
00000200: 2bc0 673d d461 e23d 8991 8d3d a8b1 31bd
00000210: 391c 963d 3bf2 41bd be0c 4cbd c78f 40be
00000220: b9a2 1abe ba41 0ebe 6f1e 8abd a9bf a93c
00000230: c57a 2cbd 10b3 2abe a792 e73c b5da 0abe
00000240: 5f17 f83d 7300 0e3e a098 153e 0eb6 1d3d
00000250: 3beb 933d 1fe6 fc3d 6711 dd3d fb40 36bd
00000260: 2122 9cbd e0cc 373d b1a8 3b3d 2c0f 473d
00000270: b10c 8f3d 524e 923c 245d 523c cdf1 e73d
00000280: c913 d8bc 8747 90bd 74ce 0cbe e5a2 68bd
00000290: 2278 63bd 6f08 bdba 45ed 99bd e61d 053c
000002a0: f020 03bd 699b 753d 4829 5aba ed95 6fbb
000002b0: 1830 c1bb e9b5 d13b f03d fcbc 77f5 babd
000002c0: bdb5 09bd 2211 cb3d e916 bebc bd7d 42bd
000002d0: 4b06 47be 26d4 253d 440d cabd 4620 253d
000002e0: 3e08 b23d 94ca 87bd d31d 57ba a883 e93c
000002f0: a7a0 93bc 6b46 1dbe f3c8 15be 8353 42be
00000300: 320b 87bd 40f1 853d a7dd ed3d a5eb 13be
00000310: e9d8 96bd 34df 7b3d 98c7 f53d 3d39 423b
00000320: 5b43 a1bc ecdb 7f3d 0d5d b1bd 94f4 893d
00000330: bcfa 8bbd 5286 00bd f7b5 7cbc 9836 cfbd
00000340: b3e3 f7bd 4d7e 5dbe 6b46 dabc b5f4 0dbd
00000350: b6e6 e0bd 4677 02be 79db cd3c 74d8 50be
00000360: 002c d8bc aadb f6bc b1d2 73bd d642 d23d
00000370: 9fc3 8c3d 4c66 f0bc baf7 b43d 589c 553b
00000380: b722 f53b 5791 8a3a 71c7 e53d eb25 f03d
00000390: 7874 293e a5fc 953d 7a54 85bd 5324 c83b
000003a0: b99a 0a3e 5fad 8c3d 5067 0e3c 42bf bfbd
000003b0: c706 723d f52f a13d 6b63 b3bd f57a 363d
000003c0: 3565 98bd ed3e f53c 06c9 a8bd 7f72 c63c
000003d0: 0959 0abd 46e0 00be 6f27 d3bd 49dd 223d
000003e0: 528a 00be aeaa cfbd 5414 a2bd cc10 1cbd
000003f0: 4b9b 75bc 3b5f 98bb bac9 4a3c c2cb 9abc

bias f4 [16]
0.22544605 0.18932177 0.0088139605 0.2120387 0.21048884 0.15109457 0.18605743 0.08128849
0.11484999 0.027054328 0.049045276 0.044880938 0.22962505 0.121069275 0.12249944 0.10205862
00000000: 54db 663e 91dd 413e 6e68 103c ac20 593e
00000010: 638a 573e 89b8 1a3e d785 3e3e 947a a63d
00000020: 7936 eb3d 0aa1 dd3c b3e3 483d 13d5 373d
00000030: d422 6b3e 2bf3 f73d fde0 fa3d 1c04 d13d

weight f4 [16, 16, 3, 3]
0.118813135 0.017709125 0.09183845 -0.039254706 0.020511203 0.03081285 0.0574079 0.08956645
0.08016719 0.023489552 0.038027696 0.07550201 0.0043897023 0.06662729 0.059646152 0.18984026
0.1803228 0.21763025 0.05559292 0.060882147 0.0033156786 0.040020686 0.004177162 0.0016091615
-0.021000309 -0.038149163 -0.008908686 0.085736066 -0.0628264 -0.045276865 -0.08754011 -0.022597214
0.0823542 0.07473853 -0.057122555 0.13745993 0.07142836 -0.018305171 -0.048404697 0.011501274
0.041943703 0.06296117 0.06157068 0.074364625 0.119819805 -0.009255365 -0.03783457 -0.006468292
0.066045344 0.039975636 0.0738863 0.15542915 0.088288896 0.16530125 0.043402936 0.032816492
0.008131951 0.045857873 0.036434762 -0.012954959 0.17191923 0.0743106 0.0969469 0.048124686
0.009493767 -0.037126068 -0.09355088 -0.12813517 0.032223918 0.06367782 0.027052142 0.0067036897
0.09257433 -0.0295138 0.170555 0.046084348 -0.043778382 0.141987 0.008379578 0.03362485
0.24266063 0.12393597 0.0026560547 0.098003216 0.07214352 -0.052763 0.17117934 -0.024744442
0.02417435 0.173271 -0.041679863 -0.02838973 -0.075115405 -0.003152346 -0.1269519 -0.11508962
-0.06593176 -0.05749547 -0.040050503 -0.11216426 -0.01558565 0.017154705 -0.06484916 -0.10526907
0.032540087 0.01024957 0.012387977 0.17013596 0.0048760385 -0.081517324 0.06424685 -0.018074619
-0.04465174 0.09742142 0.08587618 -0.01271125 0.15216416 0.034116272 0.0005415004 0.101177044
0.041959193 0.012892157 0.0738418 -0.01352313 -0.02262654 0.1723325 -0.05361063 -0.10777333
-0.011629303 -0.03283676 -0.14218722 0.009377128 0.16347395 0.07530034 0.09259995 0.0860606
-0.041020334 0.052319366 -0.0020116512 -0.036157876 0.047105916 0.20184354 0.19857183 0.15148889
0.011000555 -0.09063539 -0.06852964 -0.02675634 -0.07715714 -0.08525989 0.03391357 0.036100164
-0.027087241 -0.056697108 0.05379501 -0.09473441 -0.13598412 -0.07617104 -0.060911536 -0.1403532
-0.0344544 -0.12616247 0.029709894 0.06974987 0.003095935 -0.071376815 0.04334175 -0.06704284
-0.042356756 -0.022072356 0.0094221085 0.06622811 -0.009762434 -0.057669785 0.07797611 0.08774848
-0.058270317 -0.015894508 -0.08615264 -0.11765404 -0.009790662 0.021522127 -0.059277665 0.033761024
-0.03873062 -0.07110846 -0.03670789 0.0055253897 -0.14855637 0.0062259804 0.00352107 -0.12803257
0.00051444175 -0.101385646 -0.12315907 -0.16552272 -0.112975694 -0.1383365 -0.005196242 -0.07331239
-0.09358664 -0.033778008 -0.013157092 -0.036419895 -0.04012048 -0.059979457 -0.14512515 0.08886829
0.045446526 0.021784019 -0.019790946 0.033970468 -0.050938558 0.031761985 -0.034307495 -0.0306215
-0.09594009 -0.10200092 -0.023011867 0.059182778 -0.072204 -0.14617033 -0.06757905 -0.08605248
-0.15101436 -0.07464859 0.0066120685 -0.11054801 -0.0393429 -0.0651406 -0.16327244 0.014615815
-0.07705111 -0.1529406 0.09236045 0.07382492 -0.0044632168 0.1208893 0.002440469 0.02494315
0.04010322 0.10107179 -0.08026595 0.00617065 0.07811122 -0.13415113 0.015913526 0.03734727
-0.020553794 0.06927108 0.03720537 -0.12754339 -0.015893383 -0.07031986 -0.080789566 0.044587206
00000000: 4d54 f33d ba12 913c cc15 bc3d 8bc9 20bd
00000010: 1c07 a83c 3b6b fc3c 8c24 6b3d 9d6e b73d
00000020: b22e a43d 296d c03c eec2 1b3d cca0 9a3d
00000030: 7ed7 8f3b e373 883d 864f 743d 7c65 423e
00000040: 8aa6 383e 77da 5e3e 67b5 633d 8f5f 793d
00000050: db4b 593b bbec 233d 93e0 883b 80ea d23a
00000060: d708 acbc 4c42 1cbd bdf5 11bc 6496 af3d
00000070: 21ab 80bd 3c74 39bd 3b48 b3bd cb1d b9bc
00000080: 52a9 a83d 8410 993d 57f9 69bd 4cc2 0c3e
00000090: 0849 923d baf4 95bc 0144 46bd d76f 3c3c
000000a0: 29cd 2b3d c9f1 803d 8a31 7c3d 7b4c 983d
000000b0: 1664 f53d d0a3 17bc 6cf8 1abd f7f3 d3bb
000000c0: c842 873d 7ebd 233d b351 973d d228 1f3e
000000d0: cfd0 b43d bb44 293e 47c7 313d 966a 063d
000000e0: e03b 053c 77d5 3b3d 9e3c 153d 0941 54bc
000000f0: 980b 303e 2830 983d 198c c63d 641e 453d
00000100: bf8b 1b3c 8111 18bd 9b97 bfbd de35 03be
00000110: 3afd 033d 8469 823d 749c dd3c a0aa db3b
00000120: 9c97 bd3d edc6 f1bc f8a5 2e3e f1c2 3c3d
00000130: f650 33bd 0a65 113e 7f4a 093c 36ba 093d
00000140: 077c 783e 24d2 fd3d 3411 2e3b e9b5 c83d
00000150: fbbf 933d 041e 58bd a349 2f3e dbb4 cabc
00000160: 4909 c63c f46d 313e 81b8 2abd 9491 e8bc
00000170: 1bd6 99bd 9797 4ebb aeff 01be 1bb4 ebbd
00000180: 3b07 87bd 5f80 6bbd ff0b 24bd 60b6 e5bd
00000190: f45a 7fbc 0688 8c3c a3cf 84bd 4f97 d7bd
000001a0: c148 053d d0ed 273c f1f6 4a3c 1f38 2e3e
000001b0: 2dc7 9f3b 8ef2 a6bd da93 833d 3911 94bc
000001c0: bee4 36bd e284 c73d dadf af3d d942 50bc
000001d0: ecd0 1b3e 81bd 0b3d 7af3 0d3a e935 cf3d
000001e0: 67dd 2b3d a039 533c 5f3a 973d 1e90 5dbc
000001f0: 4b5b b9bc ee77 303e d296 5bbd 43b8 dcbd
00000200: d588 3ebc d77f 06bd 8799 11be 87a2 193c
00000210: b765 273e 1137 9a3d 0ba5 bd3d 8a40 b03d
00000220: f004 28bd d54c 563d e8d5 03bb 481a 14bd
00000230: 22f2 403d 13b0 4e3e 6a56 4b3e e71f 1b3e
00000240: ac3b 343c 0c9f b9bd 4559 8cbd 1d30 dbbc
00000250: 9004 9ebd bd9c aebd f5e8 0a3d c4dd 133d
00000260: 10e6 ddbc 3a3b 68bd 2858 5c3d 1d04 c2bd
00000270: 6c3f 0bbe 90ff 9bbd 607e 79bd c0b8 0fbe
00000280: 0f20 0dbd bc30 01be 2a62 f33c 05d9 8e3d
00000290: 2ce5 4a3b 022e 92bd 1e87 313d c24d 89bd
000002a0: 477e 2dbd 16d1 b4bc 305f 1a3c 9aa2 873d
000002b0: 9ef2 1fbc 2737 6cbd f0b1 9f3d 7ab5 b33d
000002c0: dbac 6ebd 3335 82bc cc70 b0bd 9af4 f0bd
000002d0: 0369 20bc 2c4f b03c 23cd 72bd 0049 0a3d
000002e0: 00a4 1ebd 50a1 91bd 035b 16bd 540e b53b
000002f0: 291f 18be 4f03 cc3b c0c1 663b f81a 03be
00000300: 9adb 063a 47a3 cfbd d33a fcbd ca7e 29be
00000310: cd5f e7bd 15a8 0dbe 3d45 aabb ce24 96bd
00000320: 5aaa bfbd cf5a 0abd d890 57bc 072d 15bd
00000330: 5f55 24bd 05ad 75bd b09b 14be 9400 b63d
00000340: 2326 3a3d 6674 b23c 9f20 a2bc 9e24 0b3d
00000350: f3a4 50bd db18 023d 0486 0cbd f1d9 fabc
00000360: 3d7c c4bd dce5 d0bd 6283 bcbc a469 723d
00000370: b1df 93bd adad 15be e366 8abd 483c b0bd
00000380: 82a3 1abe 5ce1 98bd 0daa d83b ff66 e2bd
00000390: 0526 21bd 6f68 85bd e430 27be 2c77 6f3c
000003a0: f9cc 9dbd 769c 1cbe 7a27 bd3d 8531 973d
000003b0: 2d40 92bb cf94 f73d 47f0 1f3b 9455 cc3c
000003c0: 4643 243d bafe ce3d 7962 a4bd 2a33 ca3b
000003d0: c6f8 9f3d ea5e 09be 155d 823c 73f9 183d
000003e0: 6e60 a8bc ffdd 8d3d a864 183d bc9a 02be
000003f0: d732 82bc dc03 90bd 0075 a5bd 13a1 363d

bias f4 [16]
-0.029940614 -0.0032040053 -0.03888233 -0.04049652 -0.030854283 -0.057621125 -0.059197538 0.06415628
0.046153817 -0.037328787 -0.09810675 0.111247264 -0.05691827 -0.030874569 -0.04338487 0.04539778
00000000: 0546 f5bc 4afa 51bb 1443 1fbd aedf 25bd
00000010: 1fc2 fcbc 2104 6cbd 1e79 72bd 5e64 833d
00000020: c90b 3d3d 12e6 18bd 31ec c8bd 9bd5 e33d
00000030: 2223 69bd aaec fcbc 55b4 31bd 06f3 393d

weight f4 [16, 8, 2, 2]
-0.25224194 -0.059047103 -0.1429151 0.14748684 -0.1834613 0.06518884 -0.093688175 0.11939702
0.23774827 0.09957301 -0.09967394 -0.07783681 0.085053615 -0.20696564 0.07453888 -0.14645763
0.1022377 -0.028965557 -0.07836278 -0.10525438 0.23145173 0.10861641 0.14937896 0.1715767
-0.20693056 -0.15259768 -0.09303412 -0.01949179 -0.15286286 0.028866947 -0.13590856 -0.05891389
0.21964906 0.012285535 -0.09634909 -0.16794042 -0.005433753 0.1513854 0.14607145 0.08699398
-0.2008852 0.062346686 0.026959786 0.15290463 0.23253635 -0.087409675 0.18415861 0.15112014
-0.18728302 -0.18467665 -0.06978224 0.11452353 -0.13890295 0.052539088 -0.12265225 0.08770673
0.14045374 -0.07825729 0.015119054 -0.13193944 -0.09217945 0.067227885 0.17050748 0.06923533
-0.18091656 -0.027771976 -0.13604914 -0.07448051 -0.07039666 -0.1479659 0.080433816 -0.09956731
0.19238736 0.0057102065 -0.04050646 0.10570988 -0.21220064 -0.04487805 -0.08738387 -0.0003181812
0.084624074 -0.015663575 0.019010805 0.046346035 -0.028111346 -0.06826002 -0.01140929 0.045053437
-0.16380246 -0.114279956 -0.21138911 0.08218521 -0.08181826 0.017847992 -0.18484339 -0.121882476
0.013888931 -0.09703169 0.06319906 0.17992488 -0.07574859 0.11099772 -0.020618793 0.08584323
-0.15755786 -0.04274169 -0.015498147 -0.15990278 0.18220967 -0.024607804 0.16729592 0.20835158
0.115999915 -0.21193075 0.022182064 -0.12369878 -0.13215917 0.1051585 -0.05706464 -0.07121553
0.097242355 0.15449151 -0.03687401 0.203597 0.11271992 0.16919795 0.07934371 0.17633228
-0.058058266 0.17040391 -0.053186763 -0.12987751 0.012083671 0.22938517 -0.13171798 0.076557085
0.055557042 -0.058453117 0.0070619145 0.031947758 0.0103496015 0.24218705 0.008222421 -0.09605029
-0.18774077 0.039128993 0.1392637 0.03786174 -0.20815541 -0.010990391 -0.06929936 -0.06793688
0.18416367 0.022570796 0.035869505 -0.015192245 0.0328363 0.14294861 0.093586095 0.14330883
-0.15624115 -0.22246973 -0.11713214 0.13120797 -0.14720254 -0.22369365 -0.1747373 0.07873835
0.019164247 0.085619554 0.1262611 0.14974271 -0.15021221 -0.08542128 -0.016867058 -0.12694322
0.1957927 -0.076400585 0.20541133 -0.10623694 0.19717349 0.040015306 -0.037066266 -0.055313565
-0.16757526 -0.22042969 -0.1411514 -0.04349988 -0.17805617 0.10356254 -0.1783726 0.043970272
-0.018328248 0.13121068 0.12475216 -0.026310893 0.0490632 -0.06243425 0.029642733 -0.10114852
-0.2377117 -0.115584046 0.04321844 0.116768084 -0.11331304 0.07317383 -0.1496795 0.06974487
0.010242908 0.11394445 -0.1525844 -0.15969019 -0.11667737 0.06137883 0.07228751 -0.15215132
0.17033845 0.14941262 0.060598336 -0.13899694 -0.023454925 0.017203713 0.1246916 0.17050591
-0.1201831 -0.14982979 -0.13926372 0.11458798 0.09408713 -0.17660628 0.15381646 -0.10806313
-0.015093662 0.11548979 0.044735588 0.05866529 -0.14107062 -0.21994756 -0.02001172 0.022646632
-0.07270491 0.1558379 0.0323869 0.07369322 -0.048843008 0.0018082396 0.11365108 0.18294165
-0.1270948 0.047631517 -0.16009523 0.021402676 -0.058663182 0.013187168 0.008604069 -0.17549388
00000000: db25 81be 60db 71bd 5658 12be ca06 173e
00000010: 47dd 3bbe ba81 853d 96df bfbd 6d86 f43d
00000020: 4874 733e efec cb3d da21 ccbd e868 9fbd
00000030: 9730 ae3d cdee 53be d7a7 983d fdf8 15be
00000040: 0062 d13d 2d49 edbc aa7c a0bd 9c8f d7bd
00000050: af01 6d3e 4872 de3d ccf6 183e cdb1 2f3e
00000060: 9be5 53be 9142 1cbe ac88 bebd 3fad 9fbc
00000070: 1588 1cbe 607a ec3c 9d2b 0bbe b14f 71bd
00000080: afeb 603e 4549 493c ac52 c5bd 93f8 2bbe
00000090: a00d b2bb c604 1b3e c193 153e e629 b23d
000000a0: dab4 4dbe 3d5f 7f3d c5da dc3c 0893 1c3e
000000b0: 021e 6e3e d803 b3bd 1394 3c3e 3dbf 1a3e
000000c0: 1fc7 3fbe e01b 3dbe fee9 8ebd 508b ea3d
000000d0: 933c 0ebe 3a33 573d 1a31 fbbd 969f b33d
000000e0: 1bd3 0f3e 5c45 a0bd e9b5 773c 221b 07be
000000f0: 94c8 bcbd c6ae 893d 8399 2e3e 41cb 8d3d
00000100: 3142 39be 0e82 e3bc 7750 0bbe 3d89 98bd
00000110: 202c 90bd 5f84 17be 7cba a43d f2e9 cbbd
00000120: 3101 453e af1c bb3b 1aea 25bd 6c7e d83d
00000130: 204b 59be 0cd2 37bd 50f6 b2bd 8fd1 a6b9
00000140: 634f ad3d e650 80bc 8cbc 9b3c 57d5 3d3d
00000150: c449 e6bc e9cb 8bbd 08ee 3abc f489 383d
00000160: d5bb 27be 9c0b eabd 6376 58be b850 a83d
00000170: 5590 a7bd f435 923c 9647 3dbe 859d f9bd
00000180: 668e 633c 8db8 c6bd 826e 813d 3a3e 383e
00000190: 1422 9bbd c652 e33d bee8 a8bc 93ce af3d
000001a0: d956 21be e911 2fbd f1eb 7dbc 8ebd 23be
000001b0: 2c95 3a3e 4e96 c9bc 9f4f 2b3e 1e5a 553e
000001c0: 5d91 ed3d 6004 59be 29b7 b53c c955 fdbd
000001d0: bc54 07be 575d d73d 9dbc 69bd 73d9 91bd
000001e0: 0027 c73d 0633 1e3e 3409 17bd bb7b 503e
000001f0: b4d9 e63d 3a42 2d3e f47e a23d 7390 343e
00000200: 81ce 6dbd 5d7e 2e3e 5dda 59bd 9cfe 04be
00000210: 97fa 453c f2e3 6a3e 14e1 06be f6c9 9c3d
00000220: c88f 633d 896c 6fbd a267 e73b a7db 023d
00000230: 6091 293c e2ff 773e 55b7 063c 04b6 c4bd
00000240: 1e3f 40be b945 203d 259b 0e3e e914 1b3d
00000250: b126 55be 0a11 34bc d3ec 8dbd 7e22 8bbd
00000260: 6795 3c3e 64e6 b83c e7eb 123d e5e8 78bc
00000270: 5b7f 063d 1f61 123e 11aa bf3d 8dbf 123e
00000280: aefd 1fbe 1bcf 63be fae2 efbd 625b 063e
00000290: 43bc 16be f30f 65be 56ee 32be 9241 a13d
000002a0: 57fe 9c3c 4e59 af3d 974a 013e 2756 193e
000002b0: 3bd1 19be 5af1 aebd c92c 8abc 67fd 01be
000002c0: e27d 483e e977 9cbd 5957 523e c192 d9bd
000002d0: d9e7 493e 17e7 233d ccd2 17bd 7a90 62bd
000002e0: d998 2bbe 52b8 61be fe89 10be ee2c 32bd
000002f0: 5b54 36be 9918 d43d 4fa7 36be 2c1a 343d
00000300: 1f25 96bc 185c 063e 0f7e ff3d f189 d7bc
00000310: 7ef6 483d 0ebb 7fbd 51d5 f23c f526 cfbd
00000320: b26a 73be 54b7 ecbd d205 313d 1b24 ef3d
00000330: ab10 e8bd 29dc 953d 9545 19be 66d6 8e3d
00000340: dfd1 273c b55b e93d 163f 1cbe d385 23be
00000350: 8cf4 eebd 5e68 7b3d 790b 943d 8ecd 1bbe
00000360: 346d 2e3e 9fff 183e f635 783d 3755 0ebe
00000370: 8b24 c0bc cdee 8c3c 4f5e ff3d 1a99 2e3e
00000380: 8f22 f6bd fb6c 19be 269b 0ebe 1aad ea3d
00000390: c1b0 c03d 47d8 34be 1082 1d3e 3450 ddbd
000003a0: 684b 77bc e985 ec3d aa3c 373d 044b 703d
000003b0: d174 10be ef39 61be 9eef a3bc 6e85 b93c
000003c0: 50e6 94bd f893 1f3e 20a8 043d 79ec 963d
000003d0: 9b0f 48bd 7402 ed3a e6c1 e83d 0e55 3b3e
000003e0: 2425 02be 4419 433d 01f0 23be aa54 af3c
000003f0: ce48 70bd fe0e 583c 15f8 0c3c abb4 33be

bias f4 [8]
0.23111914 0.22590066 0.011153526 0.18301697 0.18723135 0.004624573 -0.1870457 -0.18645558
00000000: 7faa 6c3e 8152 673e 47bd 363c cd68 3b3e
00000010: 93b9 3f3e bb89 973b e888 3fbe 36ee 3ebe

weight f4 [8, 4, 2, 2]
-0.07969082 -0.31845653 -0.17499287 0.089538306 0.164198 -0.010345159 0.08935689 0.120821424
-0.17057988 -0.12085596 0.11121927 0.01738435 -0.20545906 -0.23089868 -0.21732347 0.20126529
-0.06666068 -0.068599544 0.08891046 -0.037606016 0.22764102 -0.14792253 0.068412334 0.06736655
-0.13826843 -0.079863444 -0.15822957 -0.0805904 -0.1872364 0.02170326 -0.24279168 -0.1978812
0.26207933 0.2826717 0.100856446 0.23984201 -0.2402654 0.2099948 0.20956373 -0.1970728
-0.019131191 -0.07305968 0.2920086 0.046054773 0.2154792 -0.16576222 0.22990017 0.112846814
-0.034059387 0.24403259 -0.19761184 0.02440885 0.13806324 0.110186614 -0.120243765 -0.16317925
0.15139408 -0.11486109 -0.2756546 0.15315817 0.05423096 0.09572352 0.22339033 -0.055851612
-0.063666 -0.034310095 0.08230091 0.08618643 0.032067727 0.11696347 -0.081965655 0.24665105
0.24270788 -0.107155144 0.25491393 0.27233386 0.1862888 -0.16007704 -0.010523624 -0.18811387
-0.22971438 0.06321601 0.07374397 0.054303277 -0.06227996 0.25454694 -0.10557832 -0.06270331
-0.13844529 -0.06754589 -0.002129959 -0.14225312 0.18633337 -0.24708498 -0.22981699 0.061833166
-0.031981573 -0.20447725 -0.051634017 -0.030439861 0.025144102 -0.07868906 0.2004412 -0.20726624
-0.040554795 -0.07310977 0.2561469 -0.1264638 -0.072010495 -0.15607981 -0.051575195 -0.17224824
-0.13820451 -0.26340795 -0.16812101 -0.2061555 0.13651262 0.075473174 0.13599703 0.21580923
-0.16698055 -0.17797492 -0.18543547 0.07548612 -0.29399315 -0.17327987 -0.1079827 0.06978862
00000000: f134 a3bd bc0c a3be 5531 33be dc5f b73d
00000010: 8523 283e be7e 29bc bf00 b73d 3971 f73d
00000020: 7eac 2ebe 5483 f7bd eec6 e33d a069 8e3c
00000030: dc63 52be b470 6cbe 0b8a 5ebe 7d18 4e3e
00000040: 6585 88bd eb7d 8cbd b016 b63d c408 1abd
00000050: ba1a 693e 0179 17be c41b 8c3d 79f7 893d
00000060: 3d96 0dbe 728f a3bd ef06 22be 940c a5bd
00000070: e6ba 3fbe 09cb b13c 629e 78be 5fa1 4abe
00000080: 432f 863e 58ba 903e d38d ce3d 2599 753e
00000090: 2208 76be e008 573e e097 563e 74cd 49be
000000a0: 04b9 9cbc 50a0 95bd 2782 953e eea3 3c3d
000000b0: 94a6 5c3e 92bd 29be f36a 6b3e 3b1c e73d
000000c0: db81 0bbd aee3 793e c25a 4abe 12f5 c73c
000000d0: 7360 0d3e 85a9 e13d 5d42 f6bd 7618 27be
000000e0: 0d07 1b3e 4b3c ebbd 9a22 8dbe 7fd5 1c3e
000000f0: 4821 5e3d b10a c43d 6fc0 643e a9c4 64bd
00000100: 5263 82bd be88 0cbd 618d a83d 8382 b03d
00000110: 7359 033d 8b8a ef3d 9cdd a7bd 1892 7c3e
00000120: 6a88 783e 2874 dbbd 1484 823e 586f 8b3e
00000130: 7ec2 3e3e 3ceb 23be 476b 2cbc eca0 40be
00000140: 3f3a 6bbe 6577 813d 1407 973d 1d6d 5e3d
00000150: 4519 7fbd fa53 823e 7239 d8bd 986a 80bd
00000160: 9ac4 0dbe 8055 8abd c896 0bbb cdaa 11be
00000170: 2dce 3e3e d803 7dbe 2555 6bbe c644 7d3d
00000180: 1cff 02bd 7c62 51be 317e 53bd 045d f9bc
00000190: 01fb cd3c bb27 a1bd 7540 4d3e 9a3d 54be
000001a0: c91c 26bd 93ba 95bd b025 833e ba7f 01be
000001b0: 3d7a 93bd 63d3 1fbe 8340 53bd d861 30be
000001c0: 7c85 0dbe 68dd 86be ea27 2cbe 6d1a 53be
000001d0: f7c9 0b3e ae91 9a3d ce42 0b3e 18fd 5c3e
000001e0: f3fc 2abe 0f3f 36be cce2 3dbe 7898 9a3d
000001f0: 4586 96be 4770 31be 0926 ddbd 56ed 8e3d

bias f4 [4]
0.08066912 0.09111135 0.12368693 -0.27905726
00000000: da35 a53d 9698 ba3d 934f fd3d 98e0 8ebe

weight f4 [8, 16, 3, 3]
0.068978116 0.002094548 0.02370329 0.005180013 -0.08746902 0.06797444 0.0038823637 -0.11109288
-0.12608217 0.054801185 -0.013002739 0.0010210345 -0.046538964 -0.03692473 -0.08430875 -0.046204753
-0.036740903 -0.023044508 -0.027479839 -0.013786639 -0.10653549 0.122679144 -0.021353407 0.032348465
0.12792675 0.11219664 0.10550374 0.044149317 0.04430173 -0.06459851 -0.022454415 -0.0013724158
-0.101961985 -0.01565226 -0.15039289 -0.061288793 0.10327092 -0.014317915 0.013370707 0.10756205
0.115613714 0.00026186404 0.06164804 0.038901947 0.010042042 -0.03951338 0.04655646 -0.06896511
0.08743051 0.026150938 0.07668001 0.013354157 0.034435652 0.07919316 -0.04448136 -0.097257584
0.03481371 -0.013974212 -0.044206228 -0.0008388527 -0.07776396 -0.09695636 -0.08016514 -0.083204634
-0.04605273 0.019838074 -0.11779799 0.01677222 -0.040892623 -0.106099345 -0.106916115 -0.018722177
-0.036155887 -0.056008425 -0.105167836 -0.07382568 -0.08838445 -0.106048904 -0.044007782 -0.13118127
-0.0029570404 0.05873024 0.09055213 -0.0029247138 0.06919521 -0.08175421 0.059909698 -0.0088837445
0.043960184 -0.025346609 0.08574026 0.09368327 -0.0008758464 -0.058108114 -0.021522548 0.009356498
0.08747078 -0.064223774 0.09179223 0.09124255 -0.04517552 0.011351046 0.06132611 0.047798693
0.103457786 0.10246576 0.0050188503 0.05558715 -0.026399277 -0.016078686 -0.013083044 0.059271388
-0.047033634 -0.030230206 0.04265527 0.0775436 0.054188058 0.030538667 0.019399384 0.016629368
-0.033042893 0.00420168 0.032008477 0.09898713 -0.04880332 0.089961685 -0.026899498 -0.057614915
-0.08032574 0.019214675 -0.07534549 -0.09765286 -0.08595726 -0.016092803 -0.037935488 0.077457994
-0.00096818653 -0.07215366 -0.03981042 -0.03269556 0.014992799 0.071471155 -0.010717424 0.04134537
0.059711736 0.06378016 -0.066260606 0.05856025 0.036707327 -0.03373275 0.032427713 -0.046373177
-0.008178337 0.04367615 -0.014847838 -0.03549749 -0.048850123 0.05468457 0.04697451 0.034816947
-0.047563262 0.06642469 -0.060524467 0.026538787 -0.07828493 -0.06827132 0.0332251 0.015943922
0.020499716 -0.05611302 -0.018009141 -0.037063763 0.093639076 -0.05491253 -0.03080286 0.007177119
-0.02276463 0.10124331 -0.051191203 0.02204191 -0.10751203 -0.03911582 -0.101649635 0.05246585
0.006085186 -0.06841559 -0.11044729 -0.06182658 -0.04574545 0.0077836197 -0.019067297 -0.020578124
-0.040650323 -1.7307677e-05 0.037786044 -0.030070413 -0.029616512 -0.064454064 0.049759515 0.09081707
0.046366856 0.089921825 0.081525445 0.028425764 0.026210325 -0.049841627 0.04083286 -0.053480666
-0.026170025 0.10882245 0.037601873 -0.015966995 -0.0010015416 -0.016277304 -0.022224907 -0.011971798
0.051953048 -0.059688307 -0.046307225 -0.020737965 0.027769957 -0.012719753 -0.018554412 0.01458753
0.050704394 -0.005978438 -0.03869157 0.050603013 -0.003405559 -0.08240876 0.0690042 0.03630032
-0.008179351 0.016588561 -0.038519654 0.06651165 -0.036629166 0.0815758 -0.040896393 -0.018156707
0.021840813 0.0010626953 -0.038773477 0.008491227 -0.045094803 0.033136208 0.06490491 -0.037459854
-0.015498995 -0.055833757 -0.05504094 0.0008930666 -0.012835261 0.015913853 0.0265433 -0.006301739
00000000: 6644 8d3d af44 093b 672d c23c 19bd a93b
00000010: f522 b3bd 2f36 8b3d 416f 7e3b aa84 e3bd
00000020: af1b 01be 3577 603d 7109 55bc 3cd4 853a
00000030: a49f 3ebd 633e 17bd 11aa acbd 3241 3dbd
00000040: a17d 16bd d6c7 bcbc 661d e1bc 5be1 61bc
00000050: 472f dabd 343f fb3d 57ed aebc d37f 043d
00000060: 3bff 023e 5ac7 e53d 5812 d83d ead5 343d
00000070: bb75 353d 394c 84bd 52f2 b7bc a2e2 b3ba
00000080: 72d1 d0bd 2b39 80bc 9800 1abe f509 7bbd
00000090: b47f d33d b095 6abc cf10 5b3c 7e49 dc3d
000000a0: e2c6 ec3d cc4a 8939 a882 7c3d a657 1f3d
000000b0: 6087 243c c8d8 21bd fdb1 3e3d 943d 8dbd
000000c0: c40e b33d 7e3a d63c 690a 9d3d 65cb 5a3c
000000d0: 660c 0d3d 0630 a23d 1632 36bd fc2e c7bd
000000e0: d298 0e3d 18f4 64bc 9711 35bd 74e6 5bba
000000f0: b642 9fbd 0e91 c6bd 9f2d a4bd 3167 aabd
00000100: caa1 3cbd 7583 a23c 1340 f1bd e565 893c
00000110: 067f 27bd 9d4a d9bd d6f6 dabd 405f 99bc
00000120: 3218 14bd 1769 65bd 3c62 d7bd eb31 97bd
00000130: e802 b5bd 2b30 d9bd 8141 34bd 6254 06be
00000140: e8ca 41bb 1f8f 703d 6573 b93d 8eac 3fbb
00000150: 38b6 8d3d c06e a7bd df63 753d 208d 11bc
00000160: 980f 343d b1a3 cfbc 9798 af3d 04dd bf3d
00000170: 0f99 65ba c602 6ebd 0e50 b0bc ff4b 193c
00000180: e123 b33d c187 83bd 91fd bb3d 60dd ba3d
00000190: f709 39bd bdf9 393c 1631 7b3d 90c8 433d
000001a0: ade1 d33d 92d9 d13d 2b75 a43b 5aaf 633d
000001b0: 4c43 d8bc 73b7 83bc 445a 56bc 8ec6 723d
000001c0: 57a6 40bd 56a5 f7bc 4bb7 2e3d 2ecf 9e3d
000001d0: 4cf4 5d3d 3a2c fa3c 75eb 9e3c 503a 883c
000001e0: fc57 07bd 3fae 893b 521b 033d c4b9 ca3d
000001f0: fde5 47bd d53d b83d 565c dcbc 9efd 6bbd
00000200: d281 a4bd 1868 9d3c bc4e 9abd 39fe c7bd
00000210: 5c0a b0bd 0ed5 83bc 3e62 1bbd 4ca2 9e3d
00000220: e6cd 7dba 4cc5 93bd 4010 23bd c8eb 05bd
00000230: 5ba4 753c 785f 923d 2298 2fbc c359 293d
00000240: 4b94 743d 2c9f 823d a4b3 87bd dfdc 6f3d
00000250: 6c5a 163d 5a2b 0abd ecd2 043d cdf1 3dbd
00000260: 6efe 05bc c3e5 323d 5944 73bc d165 11bd
00000270: 1117 48bd edfc 5f3d 5868 403d 379c 0e3d
00000280: b2d1 42bd ab09 883d 81e8 77bd df67 d93c
00000290: d953 a0bd d5d1 8bbd 0b17 083d d49c 823c
000002a0: 05ef a73c c4d6 65bd e887 93bc 2cd0 17bd
000002b0: d8c5 bf3d f6eb 60bd 4856 fcbc 0a2e eb3b
000002c0: e47c babc a758 cf3d dead 51bd 3c91 b43c
000002d0: 442f dcbd e937 20bd af2d d0bd 6ee6 563d
000002e0: 3d66 c73b 791d 8cbd 3032 e2bd de3d 7dbd
000002f0: 955f 3bbd bc0d ff3b 0533 9cbc 7493 a8bc
00000300: f480 26bd f42f 91b7 8ac5 1a3d 3a56 f6bc
00000310: 549e f2bc 7e00 84bd a2d0 4b3d 4dfe b93d
00000320: 2ceb 3d3d ef28 b83d d0f6 a63d 26dd e83c
00000330: 09b7 d63c bc26 4cbd 5b40 273d 8b0e 5bbd
00000340: 8562 d6bc 4ede de3d 6c04 1a3d 37cd 82bc
00000350: 2946 83ba fb57 85bc 0211 b6bc 5c25 44bc
00000360: b8cc 543d ba7b 74bd a5ac 3dbd aae2 a9bc
00000370: d27d e33c 8366 50bc 6cff 97bc 8900 6f3c
00000380: 69af 4f3d c6e6 c3bb 0d7b 1ebd 1b45 4f3d
00000390: cd2f 5fbb edc5 a8bd 1352 8d3d a5af 143d
000003a0: af02 06bc bce4 873c c9c6 1dbd 4337 883d
000003b0: 7708 16bd 3711 a73d fa82 27bd 60bd 94bc
000003c0: 81eb b23c 234a 8b3a f0d0 1ebd ca1e 0b3c
000003d0: 54b5 38bd d5b9 073d deec 843d 816f 19bd
000003e0: 7fef 7dbc f0b1 64bd 9c72 61bd af1c 6a3a
000003f0: fd4a 52bc c55d 823c 5671 d93c d17e cebb

bias f4 [8]
-0.024346726 -0.07286677 0.026605617 0.18218642 0.08747067 0.06486248 -0.09558064 0.0807248
00000000: c972 c7bc 2c3b 95bd 06f4 d93c 148f 3a3e
00000010: d323 b33d 9fd6 843d c8bf c3bd 0b53 a53d
